**************************************************
resnet18
----------------------------------------------------------------
        Layer (type)               Output Shape         Param #
================================================================
            Conv2d-1          [-1, 64, 128, 64]           9,408
       BatchNorm2d-2          [-1, 64, 128, 64]             128
              ReLU-3          [-1, 64, 128, 64]               0
         MaxPool2d-4           [-1, 64, 64, 32]               0
            Conv2d-5           [-1, 64, 64, 32]          36,864
       BatchNorm2d-6           [-1, 64, 64, 32]             128
              ReLU-7           [-1, 64, 64, 32]               0
            Conv2d-8           [-1, 64, 64, 32]          36,864
       BatchNorm2d-9           [-1, 64, 64, 32]             128
             ReLU-10           [-1, 64, 64, 32]               0
       BasicBlock-11           [-1, 64, 64, 32]               0
           Conv2d-12           [-1, 64, 64, 32]          36,864
      BatchNorm2d-13           [-1, 64, 64, 32]             128
             ReLU-14           [-1, 64, 64, 32]               0
           Conv2d-15           [-1, 64, 64, 32]          36,864
      BatchNorm2d-16           [-1, 64, 64, 32]             128
             ReLU-17           [-1, 64, 64, 32]               0
       BasicBlock-18           [-1, 64, 64, 32]               0
           Conv2d-19          [-1, 128, 32, 16]          73,728
      BatchNorm2d-20          [-1, 128, 32, 16]             256
             ReLU-21          [-1, 128, 32, 16]               0
           Conv2d-22          [-1, 128, 32, 16]         147,456
      BatchNorm2d-23          [-1, 128, 32, 16]             256
           Conv2d-24          [-1, 128, 32, 16]           8,192
      BatchNorm2d-25          [-1, 128, 32, 16]             256
             ReLU-26          [-1, 128, 32, 16]               0
       BasicBlock-27          [-1, 128, 32, 16]               0
           Conv2d-28          [-1, 128, 32, 16]         147,456
      BatchNorm2d-29          [-1, 128, 32, 16]             256
             ReLU-30          [-1, 128, 32, 16]               0
           Conv2d-31          [-1, 128, 32, 16]         147,456
      BatchNorm2d-32          [-1, 128, 32, 16]             256
             ReLU-33          [-1, 128, 32, 16]               0
       BasicBlock-34          [-1, 128, 32, 16]               0
           Conv2d-35           [-1, 256, 16, 8]         294,912
      BatchNorm2d-36           [-1, 256, 16, 8]             512
             ReLU-37           [-1, 256, 16, 8]               0
           Conv2d-38           [-1, 256, 16, 8]         589,824
      BatchNorm2d-39           [-1, 256, 16, 8]             512
           Conv2d-40           [-1, 256, 16, 8]          32,768
      BatchNorm2d-41           [-1, 256, 16, 8]             512
             ReLU-42           [-1, 256, 16, 8]               0
       BasicBlock-43           [-1, 256, 16, 8]               0
           Conv2d-44           [-1, 256, 16, 8]         589,824
      BatchNorm2d-45           [-1, 256, 16, 8]             512
             ReLU-46           [-1, 256, 16, 8]               0
           Conv2d-47           [-1, 256, 16, 8]         589,824
      BatchNorm2d-48           [-1, 256, 16, 8]             512
             ReLU-49           [-1, 256, 16, 8]               0
       BasicBlock-50           [-1, 256, 16, 8]               0
           Conv2d-51           [-1, 512, 16, 8]       1,179,648
      BatchNorm2d-52           [-1, 512, 16, 8]           1,024
             ReLU-53           [-1, 512, 16, 8]               0
           Conv2d-54           [-1, 512, 16, 8]       2,359,296
      BatchNorm2d-55           [-1, 512, 16, 8]           1,024
           Conv2d-56           [-1, 512, 16, 8]         131,072
      BatchNorm2d-57           [-1, 512, 16, 8]           1,024
             ReLU-58           [-1, 512, 16, 8]               0
       BasicBlock-59           [-1, 512, 16, 8]               0
           Conv2d-60           [-1, 512, 16, 8]       2,359,296
      BatchNorm2d-61           [-1, 512, 16, 8]           1,024
             ReLU-62           [-1, 512, 16, 8]               0
           Conv2d-63           [-1, 512, 16, 8]       2,359,296
      BatchNorm2d-64           [-1, 512, 16, 8]           1,024
             ReLU-65           [-1, 512, 16, 8]               0
       BasicBlock-66           [-1, 512, 16, 8]               0
================================================================
Total params: 11,176,512
Trainable params: 11,176,512
Non-trainable params: 0
----------------------------------------------------------------
Input size (MB): 0.38
Forward/backward pass size (MB): 47.00
Params size (MB): 42.64
Estimated Total Size (MB): 90.01
----------------------------------------------------------------
**************************************************
resnet34
----------------------------------------------------------------
        Layer (type)               Output Shape         Param #
================================================================
            Conv2d-1          [-1, 64, 128, 64]           9,408
       BatchNorm2d-2          [-1, 64, 128, 64]             128
              ReLU-3          [-1, 64, 128, 64]               0
         MaxPool2d-4           [-1, 64, 64, 32]               0
            Conv2d-5           [-1, 64, 64, 32]          36,864
       BatchNorm2d-6           [-1, 64, 64, 32]             128
              ReLU-7           [-1, 64, 64, 32]               0
            Conv2d-8           [-1, 64, 64, 32]          36,864
       BatchNorm2d-9           [-1, 64, 64, 32]             128
             ReLU-10           [-1, 64, 64, 32]               0
       BasicBlock-11           [-1, 64, 64, 32]               0
           Conv2d-12           [-1, 64, 64, 32]          36,864
      BatchNorm2d-13           [-1, 64, 64, 32]             128
             ReLU-14           [-1, 64, 64, 32]               0
           Conv2d-15           [-1, 64, 64, 32]          36,864
      BatchNorm2d-16           [-1, 64, 64, 32]             128
             ReLU-17           [-1, 64, 64, 32]               0
       BasicBlock-18           [-1, 64, 64, 32]               0
           Conv2d-19           [-1, 64, 64, 32]          36,864
      BatchNorm2d-20           [-1, 64, 64, 32]             128
             ReLU-21           [-1, 64, 64, 32]               0
           Conv2d-22           [-1, 64, 64, 32]          36,864
      BatchNorm2d-23           [-1, 64, 64, 32]             128
             ReLU-24           [-1, 64, 64, 32]               0
       BasicBlock-25           [-1, 64, 64, 32]               0
           Conv2d-26          [-1, 128, 32, 16]          73,728
      BatchNorm2d-27          [-1, 128, 32, 16]             256
             ReLU-28          [-1, 128, 32, 16]               0
           Conv2d-29          [-1, 128, 32, 16]         147,456
      BatchNorm2d-30          [-1, 128, 32, 16]             256
           Conv2d-31          [-1, 128, 32, 16]           8,192
      BatchNorm2d-32          [-1, 128, 32, 16]             256
             ReLU-33          [-1, 128, 32, 16]               0
       BasicBlock-34          [-1, 128, 32, 16]               0
           Conv2d-35          [-1, 128, 32, 16]         147,456
      BatchNorm2d-36          [-1, 128, 32, 16]             256
             ReLU-37          [-1, 128, 32, 16]               0
           Conv2d-38          [-1, 128, 32, 16]         147,456
      BatchNorm2d-39          [-1, 128, 32, 16]             256
             ReLU-40          [-1, 128, 32, 16]               0
       BasicBlock-41          [-1, 128, 32, 16]               0
           Conv2d-42          [-1, 128, 32, 16]         147,456
      BatchNorm2d-43          [-1, 128, 32, 16]             256
             ReLU-44          [-1, 128, 32, 16]               0
           Conv2d-45          [-1, 128, 32, 16]         147,456
      BatchNorm2d-46          [-1, 128, 32, 16]             256
             ReLU-47          [-1, 128, 32, 16]               0
       BasicBlock-48          [-1, 128, 32, 16]               0
           Conv2d-49          [-1, 128, 32, 16]         147,456
      BatchNorm2d-50          [-1, 128, 32, 16]             256
             ReLU-51          [-1, 128, 32, 16]               0
           Conv2d-52          [-1, 128, 32, 16]         147,456
      BatchNorm2d-53          [-1, 128, 32, 16]             256
             ReLU-54          [-1, 128, 32, 16]               0
       BasicBlock-55          [-1, 128, 32, 16]               0
           Conv2d-56           [-1, 256, 16, 8]         294,912
      BatchNorm2d-57           [-1, 256, 16, 8]             512
             ReLU-58           [-1, 256, 16, 8]               0
           Conv2d-59           [-1, 256, 16, 8]         589,824
      BatchNorm2d-60           [-1, 256, 16, 8]             512
           Conv2d-61           [-1, 256, 16, 8]          32,768
      BatchNorm2d-62           [-1, 256, 16, 8]             512
             ReLU-63           [-1, 256, 16, 8]               0
       BasicBlock-64           [-1, 256, 16, 8]               0
           Conv2d-65           [-1, 256, 16, 8]         589,824
      BatchNorm2d-66           [-1, 256, 16, 8]             512
             ReLU-67           [-1, 256, 16, 8]               0
           Conv2d-68           [-1, 256, 16, 8]         589,824
      BatchNorm2d-69           [-1, 256, 16, 8]             512
             ReLU-70           [-1, 256, 16, 8]               0
       BasicBlock-71           [-1, 256, 16, 8]               0
           Conv2d-72           [-1, 256, 16, 8]         589,824
      BatchNorm2d-73           [-1, 256, 16, 8]             512
             ReLU-74           [-1, 256, 16, 8]               0
           Conv2d-75           [-1, 256, 16, 8]         589,824
      BatchNorm2d-76           [-1, 256, 16, 8]             512
             ReLU-77           [-1, 256, 16, 8]               0
       BasicBlock-78           [-1, 256, 16, 8]               0
           Conv2d-79           [-1, 256, 16, 8]         589,824
      BatchNorm2d-80           [-1, 256, 16, 8]             512
             ReLU-81           [-1, 256, 16, 8]               0
           Conv2d-82           [-1, 256, 16, 8]         589,824
      BatchNorm2d-83           [-1, 256, 16, 8]             512
             ReLU-84           [-1, 256, 16, 8]               0
       BasicBlock-85           [-1, 256, 16, 8]               0
           Conv2d-86           [-1, 256, 16, 8]         589,824
      BatchNorm2d-87           [-1, 256, 16, 8]             512
             ReLU-88           [-1, 256, 16, 8]               0
           Conv2d-89           [-1, 256, 16, 8]         589,824
      BatchNorm2d-90           [-1, 256, 16, 8]             512
             ReLU-91           [-1, 256, 16, 8]               0
       BasicBlock-92           [-1, 256, 16, 8]               0
           Conv2d-93           [-1, 256, 16, 8]         589,824
      BatchNorm2d-94           [-1, 256, 16, 8]             512
             ReLU-95           [-1, 256, 16, 8]               0
           Conv2d-96           [-1, 256, 16, 8]         589,824
      BatchNorm2d-97           [-1, 256, 16, 8]             512
             ReLU-98           [-1, 256, 16, 8]               0
       BasicBlock-99           [-1, 256, 16, 8]               0
          Conv2d-100           [-1, 512, 16, 8]       1,179,648
     BatchNorm2d-101           [-1, 512, 16, 8]           1,024
            ReLU-102           [-1, 512, 16, 8]               0
          Conv2d-103           [-1, 512, 16, 8]       2,359,296
     BatchNorm2d-104           [-1, 512, 16, 8]           1,024
          Conv2d-105           [-1, 512, 16, 8]         131,072
     BatchNorm2d-106           [-1, 512, 16, 8]           1,024
            ReLU-107           [-1, 512, 16, 8]               0
      BasicBlock-108           [-1, 512, 16, 8]               0
          Conv2d-109           [-1, 512, 16, 8]       2,359,296
     BatchNorm2d-110           [-1, 512, 16, 8]           1,024
            ReLU-111           [-1, 512, 16, 8]               0
          Conv2d-112           [-1, 512, 16, 8]       2,359,296
     BatchNorm2d-113           [-1, 512, 16, 8]           1,024
            ReLU-114           [-1, 512, 16, 8]               0
      BasicBlock-115           [-1, 512, 16, 8]               0
          Conv2d-116           [-1, 512, 16, 8]       2,359,296
     BatchNorm2d-117           [-1, 512, 16, 8]           1,024
            ReLU-118           [-1, 512, 16, 8]               0
          Conv2d-119           [-1, 512, 16, 8]       2,359,296
     BatchNorm2d-120           [-1, 512, 16, 8]           1,024
            ReLU-121           [-1, 512, 16, 8]               0
      BasicBlock-122           [-1, 512, 16, 8]               0
================================================================
Total params: 21,284,672
Trainable params: 21,284,672
Non-trainable params: 0
----------------------------------------------------------------
Input size (MB): 0.38
Forward/backward pass size (MB): 71.50
Params size (MB): 81.19
Estimated Total Size (MB): 153.07
----------------------------------------------------------------
**************************************************
resnet50
----------------------------------------------------------------
        Layer (type)               Output Shape         Param #
================================================================
            Conv2d-1          [-1, 64, 128, 64]           9,408
       BatchNorm2d-2          [-1, 64, 128, 64]             128
              ReLU-3          [-1, 64, 128, 64]               0
         MaxPool2d-4           [-1, 64, 64, 32]               0
            Conv2d-5           [-1, 64, 64, 32]           4,096
       BatchNorm2d-6           [-1, 64, 64, 32]             128
              ReLU-7           [-1, 64, 64, 32]               0
            Conv2d-8           [-1, 64, 64, 32]          36,864
       BatchNorm2d-9           [-1, 64, 64, 32]             128
             ReLU-10           [-1, 64, 64, 32]               0
           Conv2d-11          [-1, 256, 64, 32]          16,384
      BatchNorm2d-12          [-1, 256, 64, 32]             512
           Conv2d-13          [-1, 256, 64, 32]          16,384
      BatchNorm2d-14          [-1, 256, 64, 32]             512
             ReLU-15          [-1, 256, 64, 32]               0
       Bottleneck-16          [-1, 256, 64, 32]               0
           Conv2d-17           [-1, 64, 64, 32]          16,384
      BatchNorm2d-18           [-1, 64, 64, 32]             128
             ReLU-19           [-1, 64, 64, 32]               0
           Conv2d-20           [-1, 64, 64, 32]          36,864
      BatchNorm2d-21           [-1, 64, 64, 32]             128
             ReLU-22           [-1, 64, 64, 32]               0
           Conv2d-23          [-1, 256, 64, 32]          16,384
      BatchNorm2d-24          [-1, 256, 64, 32]             512
             ReLU-25          [-1, 256, 64, 32]               0
       Bottleneck-26          [-1, 256, 64, 32]               0
           Conv2d-27           [-1, 64, 64, 32]          16,384
      BatchNorm2d-28           [-1, 64, 64, 32]             128
             ReLU-29           [-1, 64, 64, 32]               0
           Conv2d-30           [-1, 64, 64, 32]          36,864
      BatchNorm2d-31           [-1, 64, 64, 32]             128
             ReLU-32           [-1, 64, 64, 32]               0
           Conv2d-33          [-1, 256, 64, 32]          16,384
      BatchNorm2d-34          [-1, 256, 64, 32]             512
             ReLU-35          [-1, 256, 64, 32]               0
       Bottleneck-36          [-1, 256, 64, 32]               0
***************************************************************************
           Conv2d-37          [-1, 128, 64, 32]          32,768
      BatchNorm2d-38          [-1, 128, 64, 32]             256
             ReLU-39          [-1, 128, 64, 32]               0
           Conv2d-40          [-1, 128, 32, 16]         147,456
      BatchNorm2d-41          [-1, 128, 32, 16]             256
             ReLU-42          [-1, 128, 32, 16]               0
           Conv2d-43          [-1, 512, 32, 16]          65,536
      BatchNorm2d-44          [-1, 512, 32, 16]           1,024
           Conv2d-45          [-1, 512, 32, 16]         131,072
      BatchNorm2d-46          [-1, 512, 32, 16]           1,024
             ReLU-47          [-1, 512, 32, 16]               0
       Bottleneck-48          [-1, 512, 32, 16]               0
           Conv2d-49          [-1, 128, 32, 16]          65,536
      BatchNorm2d-50          [-1, 128, 32, 16]             256
             ReLU-51          [-1, 128, 32, 16]               0
           Conv2d-52          [-1, 128, 32, 16]         147,456
      BatchNorm2d-53          [-1, 128, 32, 16]             256
             ReLU-54          [-1, 128, 32, 16]               0
           Conv2d-55          [-1, 512, 32, 16]          65,536
      BatchNorm2d-56          [-1, 512, 32, 16]           1,024
             ReLU-57          [-1, 512, 32, 16]               0
       Bottleneck-58          [-1, 512, 32, 16]               0
           Conv2d-59          [-1, 128, 32, 16]          65,536
      BatchNorm2d-60          [-1, 128, 32, 16]             256
             ReLU-61          [-1, 128, 32, 16]               0
           Conv2d-62          [-1, 128, 32, 16]         147,456
      BatchNorm2d-63          [-1, 128, 32, 16]             256
             ReLU-64          [-1, 128, 32, 16]               0
           Conv2d-65          [-1, 512, 32, 16]          65,536
      BatchNorm2d-66          [-1, 512, 32, 16]           1,024
             ReLU-67          [-1, 512, 32, 16]               0
       Bottleneck-68          [-1, 512, 32, 16]               0
           Conv2d-69          [-1, 128, 32, 16]          65,536
      BatchNorm2d-70          [-1, 128, 32, 16]             256
             ReLU-71          [-1, 128, 32, 16]               0
           Conv2d-72          [-1, 128, 32, 16]         147,456
      BatchNorm2d-73          [-1, 128, 32, 16]             256
             ReLU-74          [-1, 128, 32, 16]               0
           Conv2d-75          [-1, 512, 32, 16]          65,536
      BatchNorm2d-76          [-1, 512, 32, 16]           1,024
             ReLU-77          [-1, 512, 32, 16]               0
       Bottleneck-78          [-1, 512, 32, 16]               0
***************************************************************************
           Conv2d-79          [-1, 256, 32, 16]         131,072
      BatchNorm2d-80          [-1, 256, 32, 16]             512
             ReLU-81          [-1, 256, 32, 16]               0
           Conv2d-82           [-1, 256, 16, 8]         589,824
      BatchNorm2d-83           [-1, 256, 16, 8]             512
             ReLU-84           [-1, 256, 16, 8]               0
           Conv2d-85          [-1, 1024, 16, 8]         262,144
      BatchNorm2d-86          [-1, 1024, 16, 8]           2,048
           Conv2d-87          [-1, 1024, 16, 8]         524,288
      BatchNorm2d-88          [-1, 1024, 16, 8]           2,048
             ReLU-89          [-1, 1024, 16, 8]               0
       Bottleneck-90          [-1, 1024, 16, 8]               0
           Conv2d-91           [-1, 256, 16, 8]         262,144
      BatchNorm2d-92           [-1, 256, 16, 8]             512
             ReLU-93           [-1, 256, 16, 8]               0
           Conv2d-94           [-1, 256, 16, 8]         589,824
      BatchNorm2d-95           [-1, 256, 16, 8]             512
             ReLU-96           [-1, 256, 16, 8]               0
           Conv2d-97          [-1, 1024, 16, 8]         262,144
      BatchNorm2d-98          [-1, 1024, 16, 8]           2,048
             ReLU-99          [-1, 1024, 16, 8]               0
      Bottleneck-100          [-1, 1024, 16, 8]               0
          Conv2d-101           [-1, 256, 16, 8]         262,144
     BatchNorm2d-102           [-1, 256, 16, 8]             512
            ReLU-103           [-1, 256, 16, 8]               0
          Conv2d-104           [-1, 256, 16, 8]         589,824
     BatchNorm2d-105           [-1, 256, 16, 8]             512
            ReLU-106           [-1, 256, 16, 8]               0
          Conv2d-107          [-1, 1024, 16, 8]         262,144
     BatchNorm2d-108          [-1, 1024, 16, 8]           2,048
            ReLU-109          [-1, 1024, 16, 8]               0
      Bottleneck-110          [-1, 1024, 16, 8]               0
          Conv2d-111           [-1, 256, 16, 8]         262,144
     BatchNorm2d-112           [-1, 256, 16, 8]             512
            ReLU-113           [-1, 256, 16, 8]               0
          Conv2d-114           [-1, 256, 16, 8]         589,824
     BatchNorm2d-115           [-1, 256, 16, 8]             512
            ReLU-116           [-1, 256, 16, 8]               0
          Conv2d-117          [-1, 1024, 16, 8]         262,144
     BatchNorm2d-118          [-1, 1024, 16, 8]           2,048
            ReLU-119          [-1, 1024, 16, 8]               0
      Bottleneck-120          [-1, 1024, 16, 8]               0
          Conv2d-121           [-1, 256, 16, 8]         262,144
     BatchNorm2d-122           [-1, 256, 16, 8]             512
            ReLU-123           [-1, 256, 16, 8]               0
          Conv2d-124           [-1, 256, 16, 8]         589,824
     BatchNorm2d-125           [-1, 256, 16, 8]             512
            ReLU-126           [-1, 256, 16, 8]               0
          Conv2d-127          [-1, 1024, 16, 8]         262,144
     BatchNorm2d-128          [-1, 1024, 16, 8]           2,048
            ReLU-129          [-1, 1024, 16, 8]               0
      Bottleneck-130          [-1, 1024, 16, 8]               0
          Conv2d-131           [-1, 256, 16, 8]         262,144
     BatchNorm2d-132           [-1, 256, 16, 8]             512
            ReLU-133           [-1, 256, 16, 8]               0
          Conv2d-134           [-1, 256, 16, 8]         589,824
     BatchNorm2d-135           [-1, 256, 16, 8]             512
            ReLU-136           [-1, 256, 16, 8]               0
          Conv2d-137          [-1, 1024, 16, 8]         262,144
     BatchNorm2d-138          [-1, 1024, 16, 8]           2,048
            ReLU-139          [-1, 1024, 16, 8]               0
      Bottleneck-140          [-1, 1024, 16, 8]               0
          Conv2d-141           [-1, 512, 16, 8]         524,288
     BatchNorm2d-142           [-1, 512, 16, 8]           1,024
            ReLU-143           [-1, 512, 16, 8]               0
          Conv2d-144           [-1, 512, 16, 8]       2,359,296
     BatchNorm2d-145           [-1, 512, 16, 8]           1,024
            ReLU-146           [-1, 512, 16, 8]               0
          Conv2d-147          [-1, 2048, 16, 8]       1,048,576
     BatchNorm2d-148          [-1, 2048, 16, 8]           4,096
          Conv2d-149          [-1, 2048, 16, 8]       2,097,152
     BatchNorm2d-150          [-1, 2048, 16, 8]           4,096
            ReLU-151          [-1, 2048, 16, 8]               0
      Bottleneck-152          [-1, 2048, 16, 8]               0
          Conv2d-153           [-1, 512, 16, 8]       1,048,576
     BatchNorm2d-154           [-1, 512, 16, 8]           1,024
            ReLU-155           [-1, 512, 16, 8]               0
          Conv2d-156           [-1, 512, 16, 8]       2,359,296
     BatchNorm2d-157           [-1, 512, 16, 8]           1,024
            ReLU-158           [-1, 512, 16, 8]               0
          Conv2d-159          [-1, 2048, 16, 8]       1,048,576
     BatchNorm2d-160          [-1, 2048, 16, 8]           4,096
            ReLU-161          [-1, 2048, 16, 8]               0
      Bottleneck-162          [-1, 2048, 16, 8]               0
          Conv2d-163           [-1, 512, 16, 8]       1,048,576
     BatchNorm2d-164           [-1, 512, 16, 8]           1,024
            ReLU-165           [-1, 512, 16, 8]               0
          Conv2d-166           [-1, 512, 16, 8]       2,359,296
     BatchNorm2d-167           [-1, 512, 16, 8]           1,024
            ReLU-168           [-1, 512, 16, 8]               0
          Conv2d-169          [-1, 2048, 16, 8]       1,048,576
     BatchNorm2d-170          [-1, 2048, 16, 8]           4,096
            ReLU-171          [-1, 2048, 16, 8]               0
      Bottleneck-172          [-1, 2048, 16, 8]               0
================================================================
Total params: 23,508,032
Trainable params: 23,508,032
Non-trainable params: 0
----------------------------------------------------------------
Input size (MB): 0.38
Forward/backward pass size (MB): 213.75
Params size (MB): 89.68
Estimated Total Size (MB): 303.80
----------------------------------------------------------------
**************************************************
resnet101
----------------------------------------------------------------
        Layer (type)               Output Shape         Param #
================================================================
            Conv2d-1          [-1, 64, 128, 64]           9,408
       BatchNorm2d-2          [-1, 64, 128, 64]             128
              ReLU-3          [-1, 64, 128, 64]               0
         MaxPool2d-4           [-1, 64, 64, 32]               0
            Conv2d-5           [-1, 64, 64, 32]           4,096
       BatchNorm2d-6           [-1, 64, 64, 32]             128
              ReLU-7           [-1, 64, 64, 32]               0
            Conv2d-8           [-1, 64, 64, 32]          36,864
       BatchNorm2d-9           [-1, 64, 64, 32]             128
             ReLU-10           [-1, 64, 64, 32]               0
           Conv2d-11          [-1, 256, 64, 32]          16,384
      BatchNorm2d-12          [-1, 256, 64, 32]             512
           Conv2d-13          [-1, 256, 64, 32]          16,384
      BatchNorm2d-14          [-1, 256, 64, 32]             512
             ReLU-15          [-1, 256, 64, 32]               0
       Bottleneck-16          [-1, 256, 64, 32]               0
           Conv2d-17           [-1, 64, 64, 32]          16,384
      BatchNorm2d-18           [-1, 64, 64, 32]             128
             ReLU-19           [-1, 64, 64, 32]               0
           Conv2d-20           [-1, 64, 64, 32]          36,864
      BatchNorm2d-21           [-1, 64, 64, 32]             128
             ReLU-22           [-1, 64, 64, 32]               0
           Conv2d-23          [-1, 256, 64, 32]          16,384
      BatchNorm2d-24          [-1, 256, 64, 32]             512
             ReLU-25          [-1, 256, 64, 32]               0
       Bottleneck-26          [-1, 256, 64, 32]               0
           Conv2d-27           [-1, 64, 64, 32]          16,384
      BatchNorm2d-28           [-1, 64, 64, 32]             128
             ReLU-29           [-1, 64, 64, 32]               0
           Conv2d-30           [-1, 64, 64, 32]          36,864
      BatchNorm2d-31           [-1, 64, 64, 32]             128
             ReLU-32           [-1, 64, 64, 32]               0
           Conv2d-33          [-1, 256, 64, 32]          16,384
      BatchNorm2d-34          [-1, 256, 64, 32]             512
             ReLU-35          [-1, 256, 64, 32]               0
       Bottleneck-36          [-1, 256, 64, 32]               0
           Conv2d-37          [-1, 128, 64, 32]          32,768
      BatchNorm2d-38          [-1, 128, 64, 32]             256
             ReLU-39          [-1, 128, 64, 32]               0
           Conv2d-40          [-1, 128, 32, 16]         147,456
      BatchNorm2d-41          [-1, 128, 32, 16]             256
             ReLU-42          [-1, 128, 32, 16]               0
           Conv2d-43          [-1, 512, 32, 16]          65,536
      BatchNorm2d-44          [-1, 512, 32, 16]           1,024
           Conv2d-45          [-1, 512, 32, 16]         131,072
      BatchNorm2d-46          [-1, 512, 32, 16]           1,024
             ReLU-47          [-1, 512, 32, 16]               0
       Bottleneck-48          [-1, 512, 32, 16]               0
           Conv2d-49          [-1, 128, 32, 16]          65,536
      BatchNorm2d-50          [-1, 128, 32, 16]             256
             ReLU-51          [-1, 128, 32, 16]               0
           Conv2d-52          [-1, 128, 32, 16]         147,456
      BatchNorm2d-53          [-1, 128, 32, 16]             256
             ReLU-54          [-1, 128, 32, 16]               0
           Conv2d-55          [-1, 512, 32, 16]          65,536
      BatchNorm2d-56          [-1, 512, 32, 16]           1,024
             ReLU-57          [-1, 512, 32, 16]               0
       Bottleneck-58          [-1, 512, 32, 16]               0
           Conv2d-59          [-1, 128, 32, 16]          65,536
      BatchNorm2d-60          [-1, 128, 32, 16]             256
             ReLU-61          [-1, 128, 32, 16]               0
           Conv2d-62          [-1, 128, 32, 16]         147,456
      BatchNorm2d-63          [-1, 128, 32, 16]             256
             ReLU-64          [-1, 128, 32, 16]               0
           Conv2d-65          [-1, 512, 32, 16]          65,536
      BatchNorm2d-66          [-1, 512, 32, 16]           1,024
             ReLU-67          [-1, 512, 32, 16]               0
       Bottleneck-68          [-1, 512, 32, 16]               0
           Conv2d-69          [-1, 128, 32, 16]          65,536
      BatchNorm2d-70          [-1, 128, 32, 16]             256
             ReLU-71          [-1, 128, 32, 16]               0
           Conv2d-72          [-1, 128, 32, 16]         147,456
      BatchNorm2d-73          [-1, 128, 32, 16]             256
             ReLU-74          [-1, 128, 32, 16]               0
           Conv2d-75          [-1, 512, 32, 16]          65,536
      BatchNorm2d-76          [-1, 512, 32, 16]           1,024
             ReLU-77          [-1, 512, 32, 16]               0
       Bottleneck-78          [-1, 512, 32, 16]               0
           Conv2d-79          [-1, 256, 32, 16]         131,072
      BatchNorm2d-80          [-1, 256, 32, 16]             512
             ReLU-81          [-1, 256, 32, 16]               0
           Conv2d-82           [-1, 256, 16, 8]         589,824
      BatchNorm2d-83           [-1, 256, 16, 8]             512
             ReLU-84           [-1, 256, 16, 8]               0
           Conv2d-85          [-1, 1024, 16, 8]         262,144
      BatchNorm2d-86          [-1, 1024, 16, 8]           2,048
           Conv2d-87          [-1, 1024, 16, 8]         524,288
      BatchNorm2d-88          [-1, 1024, 16, 8]           2,048
             ReLU-89          [-1, 1024, 16, 8]               0
       Bottleneck-90          [-1, 1024, 16, 8]               0
           Conv2d-91           [-1, 256, 16, 8]         262,144
      BatchNorm2d-92           [-1, 256, 16, 8]             512
             ReLU-93           [-1, 256, 16, 8]               0
           Conv2d-94           [-1, 256, 16, 8]         589,824
      BatchNorm2d-95           [-1, 256, 16, 8]             512
             ReLU-96           [-1, 256, 16, 8]               0
           Conv2d-97          [-1, 1024, 16, 8]         262,144
      BatchNorm2d-98          [-1, 1024, 16, 8]           2,048
             ReLU-99          [-1, 1024, 16, 8]               0
      Bottleneck-100          [-1, 1024, 16, 8]               0
          Conv2d-101           [-1, 256, 16, 8]         262,144
     BatchNorm2d-102           [-1, 256, 16, 8]             512
            ReLU-103           [-1, 256, 16, 8]               0
          Conv2d-104           [-1, 256, 16, 8]         589,824
     BatchNorm2d-105           [-1, 256, 16, 8]             512
            ReLU-106           [-1, 256, 16, 8]               0
          Conv2d-107          [-1, 1024, 16, 8]         262,144
     BatchNorm2d-108          [-1, 1024, 16, 8]           2,048
            ReLU-109          [-1, 1024, 16, 8]               0
      Bottleneck-110          [-1, 1024, 16, 8]               0
          Conv2d-111           [-1, 256, 16, 8]         262,144
     BatchNorm2d-112           [-1, 256, 16, 8]             512
            ReLU-113           [-1, 256, 16, 8]               0
          Conv2d-114           [-1, 256, 16, 8]         589,824
     BatchNorm2d-115           [-1, 256, 16, 8]             512
            ReLU-116           [-1, 256, 16, 8]               0
          Conv2d-117          [-1, 1024, 16, 8]         262,144
     BatchNorm2d-118          [-1, 1024, 16, 8]           2,048
            ReLU-119          [-1, 1024, 16, 8]               0
      Bottleneck-120          [-1, 1024, 16, 8]               0
          Conv2d-121           [-1, 256, 16, 8]         262,144
     BatchNorm2d-122           [-1, 256, 16, 8]             512
            ReLU-123           [-1, 256, 16, 8]               0
          Conv2d-124           [-1, 256, 16, 8]         589,824
     BatchNorm2d-125           [-1, 256, 16, 8]             512
            ReLU-126           [-1, 256, 16, 8]               0
          Conv2d-127          [-1, 1024, 16, 8]         262,144
     BatchNorm2d-128          [-1, 1024, 16, 8]           2,048
            ReLU-129          [-1, 1024, 16, 8]               0
      Bottleneck-130          [-1, 1024, 16, 8]               0
          Conv2d-131           [-1, 256, 16, 8]         262,144
     BatchNorm2d-132           [-1, 256, 16, 8]             512
            ReLU-133           [-1, 256, 16, 8]               0
          Conv2d-134           [-1, 256, 16, 8]         589,824
     BatchNorm2d-135           [-1, 256, 16, 8]             512
            ReLU-136           [-1, 256, 16, 8]               0
          Conv2d-137          [-1, 1024, 16, 8]         262,144
     BatchNorm2d-138          [-1, 1024, 16, 8]           2,048
            ReLU-139          [-1, 1024, 16, 8]               0
      Bottleneck-140          [-1, 1024, 16, 8]               0
          Conv2d-141           [-1, 256, 16, 8]         262,144
     BatchNorm2d-142           [-1, 256, 16, 8]             512
            ReLU-143           [-1, 256, 16, 8]               0
          Conv2d-144           [-1, 256, 16, 8]         589,824
     BatchNorm2d-145           [-1, 256, 16, 8]             512
            ReLU-146           [-1, 256, 16, 8]               0
          Conv2d-147          [-1, 1024, 16, 8]         262,144
     BatchNorm2d-148          [-1, 1024, 16, 8]           2,048
            ReLU-149          [-1, 1024, 16, 8]               0
      Bottleneck-150          [-1, 1024, 16, 8]               0
          Conv2d-151           [-1, 256, 16, 8]         262,144
     BatchNorm2d-152           [-1, 256, 16, 8]             512
            ReLU-153           [-1, 256, 16, 8]               0
          Conv2d-154           [-1, 256, 16, 8]         589,824
     BatchNorm2d-155           [-1, 256, 16, 8]             512
            ReLU-156           [-1, 256, 16, 8]               0
          Conv2d-157          [-1, 1024, 16, 8]         262,144
     BatchNorm2d-158          [-1, 1024, 16, 8]           2,048
            ReLU-159          [-1, 1024, 16, 8]               0
      Bottleneck-160          [-1, 1024, 16, 8]               0
          Conv2d-161           [-1, 256, 16, 8]         262,144
     BatchNorm2d-162           [-1, 256, 16, 8]             512
            ReLU-163           [-1, 256, 16, 8]               0
          Conv2d-164           [-1, 256, 16, 8]         589,824
     BatchNorm2d-165           [-1, 256, 16, 8]             512
            ReLU-166           [-1, 256, 16, 8]               0
          Conv2d-167          [-1, 1024, 16, 8]         262,144
     BatchNorm2d-168          [-1, 1024, 16, 8]           2,048
            ReLU-169          [-1, 1024, 16, 8]               0
      Bottleneck-170          [-1, 1024, 16, 8]               0
          Conv2d-171           [-1, 256, 16, 8]         262,144
     BatchNorm2d-172           [-1, 256, 16, 8]             512
            ReLU-173           [-1, 256, 16, 8]               0
          Conv2d-174           [-1, 256, 16, 8]         589,824
     BatchNorm2d-175           [-1, 256, 16, 8]             512
            ReLU-176           [-1, 256, 16, 8]               0
          Conv2d-177          [-1, 1024, 16, 8]         262,144
     BatchNorm2d-178          [-1, 1024, 16, 8]           2,048
            ReLU-179          [-1, 1024, 16, 8]               0
      Bottleneck-180          [-1, 1024, 16, 8]               0
          Conv2d-181           [-1, 256, 16, 8]         262,144
     BatchNorm2d-182           [-1, 256, 16, 8]             512
            ReLU-183           [-1, 256, 16, 8]               0
          Conv2d-184           [-1, 256, 16, 8]         589,824
     BatchNorm2d-185           [-1, 256, 16, 8]             512
            ReLU-186           [-1, 256, 16, 8]               0
          Conv2d-187          [-1, 1024, 16, 8]         262,144
     BatchNorm2d-188          [-1, 1024, 16, 8]           2,048
            ReLU-189          [-1, 1024, 16, 8]               0
      Bottleneck-190          [-1, 1024, 16, 8]               0
          Conv2d-191           [-1, 256, 16, 8]         262,144
     BatchNorm2d-192           [-1, 256, 16, 8]             512
            ReLU-193           [-1, 256, 16, 8]               0
          Conv2d-194           [-1, 256, 16, 8]         589,824
     BatchNorm2d-195           [-1, 256, 16, 8]             512
            ReLU-196           [-1, 256, 16, 8]               0
          Conv2d-197          [-1, 1024, 16, 8]         262,144
     BatchNorm2d-198          [-1, 1024, 16, 8]           2,048
            ReLU-199          [-1, 1024, 16, 8]               0
      Bottleneck-200          [-1, 1024, 16, 8]               0
          Conv2d-201           [-1, 256, 16, 8]         262,144
     BatchNorm2d-202           [-1, 256, 16, 8]             512
            ReLU-203           [-1, 256, 16, 8]               0
          Conv2d-204           [-1, 256, 16, 8]         589,824
     BatchNorm2d-205           [-1, 256, 16, 8]             512
            ReLU-206           [-1, 256, 16, 8]               0
          Conv2d-207          [-1, 1024, 16, 8]         262,144
     BatchNorm2d-208          [-1, 1024, 16, 8]           2,048
            ReLU-209          [-1, 1024, 16, 8]               0
      Bottleneck-210          [-1, 1024, 16, 8]               0
          Conv2d-211           [-1, 256, 16, 8]         262,144
     BatchNorm2d-212           [-1, 256, 16, 8]             512
            ReLU-213           [-1, 256, 16, 8]               0
          Conv2d-214           [-1, 256, 16, 8]         589,824
     BatchNorm2d-215           [-1, 256, 16, 8]             512
            ReLU-216           [-1, 256, 16, 8]               0
          Conv2d-217          [-1, 1024, 16, 8]         262,144
     BatchNorm2d-218          [-1, 1024, 16, 8]           2,048
            ReLU-219          [-1, 1024, 16, 8]               0
      Bottleneck-220          [-1, 1024, 16, 8]               0
          Conv2d-221           [-1, 256, 16, 8]         262,144
     BatchNorm2d-222           [-1, 256, 16, 8]             512
            ReLU-223           [-1, 256, 16, 8]               0
          Conv2d-224           [-1, 256, 16, 8]         589,824
     BatchNorm2d-225           [-1, 256, 16, 8]             512
            ReLU-226           [-1, 256, 16, 8]               0
          Conv2d-227          [-1, 1024, 16, 8]         262,144
     BatchNorm2d-228          [-1, 1024, 16, 8]           2,048
            ReLU-229          [-1, 1024, 16, 8]               0
      Bottleneck-230          [-1, 1024, 16, 8]               0
          Conv2d-231           [-1, 256, 16, 8]         262,144
     BatchNorm2d-232           [-1, 256, 16, 8]             512
            ReLU-233           [-1, 256, 16, 8]               0
          Conv2d-234           [-1, 256, 16, 8]         589,824
     BatchNorm2d-235           [-1, 256, 16, 8]             512
            ReLU-236           [-1, 256, 16, 8]               0
          Conv2d-237          [-1, 1024, 16, 8]         262,144
     BatchNorm2d-238          [-1, 1024, 16, 8]           2,048
            ReLU-239          [-1, 1024, 16, 8]               0
      Bottleneck-240          [-1, 1024, 16, 8]               0
          Conv2d-241           [-1, 256, 16, 8]         262,144
     BatchNorm2d-242           [-1, 256, 16, 8]             512
            ReLU-243           [-1, 256, 16, 8]               0
          Conv2d-244           [-1, 256, 16, 8]         589,824
     BatchNorm2d-245           [-1, 256, 16, 8]             512
            ReLU-246           [-1, 256, 16, 8]               0
          Conv2d-247          [-1, 1024, 16, 8]         262,144
     BatchNorm2d-248          [-1, 1024, 16, 8]           2,048
            ReLU-249          [-1, 1024, 16, 8]               0
      Bottleneck-250          [-1, 1024, 16, 8]               0
          Conv2d-251           [-1, 256, 16, 8]         262,144
     BatchNorm2d-252           [-1, 256, 16, 8]             512
            ReLU-253           [-1, 256, 16, 8]               0
          Conv2d-254           [-1, 256, 16, 8]         589,824
     BatchNorm2d-255           [-1, 256, 16, 8]             512
            ReLU-256           [-1, 256, 16, 8]               0
          Conv2d-257          [-1, 1024, 16, 8]         262,144
     BatchNorm2d-258          [-1, 1024, 16, 8]           2,048
            ReLU-259          [-1, 1024, 16, 8]               0
      Bottleneck-260          [-1, 1024, 16, 8]               0
          Conv2d-261           [-1, 256, 16, 8]         262,144
     BatchNorm2d-262           [-1, 256, 16, 8]             512
            ReLU-263           [-1, 256, 16, 8]               0
          Conv2d-264           [-1, 256, 16, 8]         589,824
     BatchNorm2d-265           [-1, 256, 16, 8]             512
            ReLU-266           [-1, 256, 16, 8]               0
          Conv2d-267          [-1, 1024, 16, 8]         262,144
     BatchNorm2d-268          [-1, 1024, 16, 8]           2,048
            ReLU-269          [-1, 1024, 16, 8]               0
      Bottleneck-270          [-1, 1024, 16, 8]               0
          Conv2d-271           [-1, 256, 16, 8]         262,144
     BatchNorm2d-272           [-1, 256, 16, 8]             512
            ReLU-273           [-1, 256, 16, 8]               0
          Conv2d-274           [-1, 256, 16, 8]         589,824
     BatchNorm2d-275           [-1, 256, 16, 8]             512
            ReLU-276           [-1, 256, 16, 8]               0
          Conv2d-277          [-1, 1024, 16, 8]         262,144
     BatchNorm2d-278          [-1, 1024, 16, 8]           2,048
            ReLU-279          [-1, 1024, 16, 8]               0
      Bottleneck-280          [-1, 1024, 16, 8]               0
          Conv2d-281           [-1, 256, 16, 8]         262,144
     BatchNorm2d-282           [-1, 256, 16, 8]             512
            ReLU-283           [-1, 256, 16, 8]               0
          Conv2d-284           [-1, 256, 16, 8]         589,824
     BatchNorm2d-285           [-1, 256, 16, 8]             512
            ReLU-286           [-1, 256, 16, 8]               0
          Conv2d-287          [-1, 1024, 16, 8]         262,144
     BatchNorm2d-288          [-1, 1024, 16, 8]           2,048
            ReLU-289          [-1, 1024, 16, 8]               0
      Bottleneck-290          [-1, 1024, 16, 8]               0
          Conv2d-291           [-1, 256, 16, 8]         262,144
     BatchNorm2d-292           [-1, 256, 16, 8]             512
            ReLU-293           [-1, 256, 16, 8]               0
          Conv2d-294           [-1, 256, 16, 8]         589,824
     BatchNorm2d-295           [-1, 256, 16, 8]             512
            ReLU-296           [-1, 256, 16, 8]               0
          Conv2d-297          [-1, 1024, 16, 8]         262,144
     BatchNorm2d-298          [-1, 1024, 16, 8]           2,048
            ReLU-299          [-1, 1024, 16, 8]               0
      Bottleneck-300          [-1, 1024, 16, 8]               0
          Conv2d-301           [-1, 256, 16, 8]         262,144
     BatchNorm2d-302           [-1, 256, 16, 8]             512
            ReLU-303           [-1, 256, 16, 8]               0
          Conv2d-304           [-1, 256, 16, 8]         589,824
     BatchNorm2d-305           [-1, 256, 16, 8]             512
            ReLU-306           [-1, 256, 16, 8]               0
          Conv2d-307          [-1, 1024, 16, 8]         262,144
     BatchNorm2d-308          [-1, 1024, 16, 8]           2,048
            ReLU-309          [-1, 1024, 16, 8]               0
      Bottleneck-310          [-1, 1024, 16, 8]               0
          Conv2d-311           [-1, 512, 16, 8]         524,288
     BatchNorm2d-312           [-1, 512, 16, 8]           1,024
            ReLU-313           [-1, 512, 16, 8]               0
          Conv2d-314           [-1, 512, 16, 8]       2,359,296
     BatchNorm2d-315           [-1, 512, 16, 8]           1,024
            ReLU-316           [-1, 512, 16, 8]               0
          Conv2d-317          [-1, 2048, 16, 8]       1,048,576
     BatchNorm2d-318          [-1, 2048, 16, 8]           4,096
          Conv2d-319          [-1, 2048, 16, 8]       2,097,152
     BatchNorm2d-320          [-1, 2048, 16, 8]           4,096
            ReLU-321          [-1, 2048, 16, 8]               0
      Bottleneck-322          [-1, 2048, 16, 8]               0
          Conv2d-323           [-1, 512, 16, 8]       1,048,576
     BatchNorm2d-324           [-1, 512, 16, 8]           1,024
            ReLU-325           [-1, 512, 16, 8]               0
          Conv2d-326           [-1, 512, 16, 8]       2,359,296
     BatchNorm2d-327           [-1, 512, 16, 8]           1,024
            ReLU-328           [-1, 512, 16, 8]               0
          Conv2d-329          [-1, 2048, 16, 8]       1,048,576
     BatchNorm2d-330          [-1, 2048, 16, 8]           4,096
            ReLU-331          [-1, 2048, 16, 8]               0
      Bottleneck-332          [-1, 2048, 16, 8]               0
          Conv2d-333           [-1, 512, 16, 8]       1,048,576
     BatchNorm2d-334           [-1, 512, 16, 8]           1,024
            ReLU-335           [-1, 512, 16, 8]               0
          Conv2d-336           [-1, 512, 16, 8]       2,359,296
     BatchNorm2d-337           [-1, 512, 16, 8]           1,024
            ReLU-338           [-1, 512, 16, 8]               0
          Conv2d-339          [-1, 2048, 16, 8]       1,048,576
     BatchNorm2d-340          [-1, 2048, 16, 8]           4,096
            ReLU-341          [-1, 2048, 16, 8]               0
      Bottleneck-342          [-1, 2048, 16, 8]               0
================================================================
Total params: 42,500,160
Trainable params: 42,500,160
Non-trainable params: 0
----------------------------------------------------------------
Input size (MB): 0.38
Forward/backward pass size (MB): 307.25
Params size (MB): 162.13
Estimated Total Size (MB): 469.75
----------------------------------------------------------------
**************************************************
resnet152
----------------------------------------------------------------
        Layer (type)               Output Shape         Param #
================================================================
            Conv2d-1          [-1, 64, 128, 64]           9,408
       BatchNorm2d-2          [-1, 64, 128, 64]             128
              ReLU-3          [-1, 64, 128, 64]               0
         MaxPool2d-4           [-1, 64, 64, 32]               0
            Conv2d-5           [-1, 64, 64, 32]           4,096
       BatchNorm2d-6           [-1, 64, 64, 32]             128
              ReLU-7           [-1, 64, 64, 32]               0
            Conv2d-8           [-1, 64, 64, 32]          36,864
       BatchNorm2d-9           [-1, 64, 64, 32]             128
             ReLU-10           [-1, 64, 64, 32]               0
           Conv2d-11          [-1, 256, 64, 32]          16,384
      BatchNorm2d-12          [-1, 256, 64, 32]             512
           Conv2d-13          [-1, 256, 64, 32]          16,384
      BatchNorm2d-14          [-1, 256, 64, 32]             512
             ReLU-15          [-1, 256, 64, 32]               0
       Bottleneck-16          [-1, 256, 64, 32]               0
           Conv2d-17           [-1, 64, 64, 32]          16,384
      BatchNorm2d-18           [-1, 64, 64, 32]             128
             ReLU-19           [-1, 64, 64, 32]               0
           Conv2d-20           [-1, 64, 64, 32]          36,864
      BatchNorm2d-21           [-1, 64, 64, 32]             128
             ReLU-22           [-1, 64, 64, 32]               0
           Conv2d-23          [-1, 256, 64, 32]          16,384
      BatchNorm2d-24          [-1, 256, 64, 32]             512
             ReLU-25          [-1, 256, 64, 32]               0
       Bottleneck-26          [-1, 256, 64, 32]               0
           Conv2d-27           [-1, 64, 64, 32]          16,384
      BatchNorm2d-28           [-1, 64, 64, 32]             128
             ReLU-29           [-1, 64, 64, 32]               0
           Conv2d-30           [-1, 64, 64, 32]          36,864
      BatchNorm2d-31           [-1, 64, 64, 32]             128
             ReLU-32           [-1, 64, 64, 32]               0
           Conv2d-33          [-1, 256, 64, 32]          16,384
      BatchNorm2d-34          [-1, 256, 64, 32]             512
             ReLU-35          [-1, 256, 64, 32]               0
       Bottleneck-36          [-1, 256, 64, 32]               0
           Conv2d-37          [-1, 128, 64, 32]          32,768
      BatchNorm2d-38          [-1, 128, 64, 32]             256
             ReLU-39          [-1, 128, 64, 32]               0
           Conv2d-40          [-1, 128, 32, 16]         147,456
      BatchNorm2d-41          [-1, 128, 32, 16]             256
             ReLU-42          [-1, 128, 32, 16]               0
           Conv2d-43          [-1, 512, 32, 16]          65,536
      BatchNorm2d-44          [-1, 512, 32, 16]           1,024
           Conv2d-45          [-1, 512, 32, 16]         131,072
      BatchNorm2d-46          [-1, 512, 32, 16]           1,024
             ReLU-47          [-1, 512, 32, 16]               0
       Bottleneck-48          [-1, 512, 32, 16]               0
           Conv2d-49          [-1, 128, 32, 16]          65,536
      BatchNorm2d-50          [-1, 128, 32, 16]             256
             ReLU-51          [-1, 128, 32, 16]               0
           Conv2d-52          [-1, 128, 32, 16]         147,456
      BatchNorm2d-53          [-1, 128, 32, 16]             256
             ReLU-54          [-1, 128, 32, 16]               0
           Conv2d-55          [-1, 512, 32, 16]          65,536
      BatchNorm2d-56          [-1, 512, 32, 16]           1,024
             ReLU-57          [-1, 512, 32, 16]               0
       Bottleneck-58          [-1, 512, 32, 16]               0
           Conv2d-59          [-1, 128, 32, 16]          65,536
      BatchNorm2d-60          [-1, 128, 32, 16]             256
             ReLU-61          [-1, 128, 32, 16]               0
           Conv2d-62          [-1, 128, 32, 16]         147,456
      BatchNorm2d-63          [-1, 128, 32, 16]             256
             ReLU-64          [-1, 128, 32, 16]               0
           Conv2d-65          [-1, 512, 32, 16]          65,536
      BatchNorm2d-66          [-1, 512, 32, 16]           1,024
             ReLU-67          [-1, 512, 32, 16]               0
       Bottleneck-68          [-1, 512, 32, 16]               0
           Conv2d-69          [-1, 128, 32, 16]          65,536
      BatchNorm2d-70          [-1, 128, 32, 16]             256
             ReLU-71          [-1, 128, 32, 16]               0
           Conv2d-72          [-1, 128, 32, 16]         147,456
      BatchNorm2d-73          [-1, 128, 32, 16]             256
             ReLU-74          [-1, 128, 32, 16]               0
           Conv2d-75          [-1, 512, 32, 16]          65,536
      BatchNorm2d-76          [-1, 512, 32, 16]           1,024
             ReLU-77          [-1, 512, 32, 16]               0
       Bottleneck-78          [-1, 512, 32, 16]               0
           Conv2d-79          [-1, 128, 32, 16]          65,536
      BatchNorm2d-80          [-1, 128, 32, 16]             256
             ReLU-81          [-1, 128, 32, 16]               0
           Conv2d-82          [-1, 128, 32, 16]         147,456
      BatchNorm2d-83          [-1, 128, 32, 16]             256
             ReLU-84          [-1, 128, 32, 16]               0
           Conv2d-85          [-1, 512, 32, 16]          65,536
      BatchNorm2d-86          [-1, 512, 32, 16]           1,024
             ReLU-87          [-1, 512, 32, 16]               0
       Bottleneck-88          [-1, 512, 32, 16]               0
           Conv2d-89          [-1, 128, 32, 16]          65,536
      BatchNorm2d-90          [-1, 128, 32, 16]             256
             ReLU-91          [-1, 128, 32, 16]               0
           Conv2d-92          [-1, 128, 32, 16]         147,456
      BatchNorm2d-93          [-1, 128, 32, 16]             256
             ReLU-94          [-1, 128, 32, 16]               0
           Conv2d-95          [-1, 512, 32, 16]          65,536
      BatchNorm2d-96          [-1, 512, 32, 16]           1,024
             ReLU-97          [-1, 512, 32, 16]               0
       Bottleneck-98          [-1, 512, 32, 16]               0
           Conv2d-99          [-1, 128, 32, 16]          65,536
     BatchNorm2d-100          [-1, 128, 32, 16]             256
            ReLU-101          [-1, 128, 32, 16]               0
          Conv2d-102          [-1, 128, 32, 16]         147,456
     BatchNorm2d-103          [-1, 128, 32, 16]             256
            ReLU-104          [-1, 128, 32, 16]               0
          Conv2d-105          [-1, 512, 32, 16]          65,536
     BatchNorm2d-106          [-1, 512, 32, 16]           1,024
            ReLU-107          [-1, 512, 32, 16]               0
      Bottleneck-108          [-1, 512, 32, 16]               0
          Conv2d-109          [-1, 128, 32, 16]          65,536
     BatchNorm2d-110          [-1, 128, 32, 16]             256
            ReLU-111          [-1, 128, 32, 16]               0
          Conv2d-112          [-1, 128, 32, 16]         147,456
     BatchNorm2d-113          [-1, 128, 32, 16]             256
            ReLU-114          [-1, 128, 32, 16]               0
          Conv2d-115          [-1, 512, 32, 16]          65,536
     BatchNorm2d-116          [-1, 512, 32, 16]           1,024
            ReLU-117          [-1, 512, 32, 16]               0
      Bottleneck-118          [-1, 512, 32, 16]               0
          Conv2d-119          [-1, 256, 32, 16]         131,072
     BatchNorm2d-120          [-1, 256, 32, 16]             512
            ReLU-121          [-1, 256, 32, 16]               0
          Conv2d-122           [-1, 256, 16, 8]         589,824
     BatchNorm2d-123           [-1, 256, 16, 8]             512
            ReLU-124           [-1, 256, 16, 8]               0
          Conv2d-125          [-1, 1024, 16, 8]         262,144
     BatchNorm2d-126          [-1, 1024, 16, 8]           2,048
          Conv2d-127          [-1, 1024, 16, 8]         524,288
     BatchNorm2d-128          [-1, 1024, 16, 8]           2,048
            ReLU-129          [-1, 1024, 16, 8]               0
      Bottleneck-130          [-1, 1024, 16, 8]               0
          Conv2d-131           [-1, 256, 16, 8]         262,144
     BatchNorm2d-132           [-1, 256, 16, 8]             512
            ReLU-133           [-1, 256, 16, 8]               0
          Conv2d-134           [-1, 256, 16, 8]         589,824
     BatchNorm2d-135           [-1, 256, 16, 8]             512
            ReLU-136           [-1, 256, 16, 8]               0
          Conv2d-137          [-1, 1024, 16, 8]         262,144
     BatchNorm2d-138          [-1, 1024, 16, 8]           2,048
            ReLU-139          [-1, 1024, 16, 8]               0
      Bottleneck-140          [-1, 1024, 16, 8]               0
          Conv2d-141           [-1, 256, 16, 8]         262,144
     BatchNorm2d-142           [-1, 256, 16, 8]             512
            ReLU-143           [-1, 256, 16, 8]               0
          Conv2d-144           [-1, 256, 16, 8]         589,824
     BatchNorm2d-145           [-1, 256, 16, 8]             512
            ReLU-146           [-1, 256, 16, 8]               0
          Conv2d-147          [-1, 1024, 16, 8]         262,144
     BatchNorm2d-148          [-1, 1024, 16, 8]           2,048
            ReLU-149          [-1, 1024, 16, 8]               0
      Bottleneck-150          [-1, 1024, 16, 8]               0
          Conv2d-151           [-1, 256, 16, 8]         262,144
     BatchNorm2d-152           [-1, 256, 16, 8]             512
            ReLU-153           [-1, 256, 16, 8]               0
          Conv2d-154           [-1, 256, 16, 8]         589,824
     BatchNorm2d-155           [-1, 256, 16, 8]             512
            ReLU-156           [-1, 256, 16, 8]               0
          Conv2d-157          [-1, 1024, 16, 8]         262,144
     BatchNorm2d-158          [-1, 1024, 16, 8]           2,048
            ReLU-159          [-1, 1024, 16, 8]               0
      Bottleneck-160          [-1, 1024, 16, 8]               0
          Conv2d-161           [-1, 256, 16, 8]         262,144
     BatchNorm2d-162           [-1, 256, 16, 8]             512
            ReLU-163           [-1, 256, 16, 8]               0
          Conv2d-164           [-1, 256, 16, 8]         589,824
     BatchNorm2d-165           [-1, 256, 16, 8]             512
            ReLU-166           [-1, 256, 16, 8]               0
          Conv2d-167          [-1, 1024, 16, 8]         262,144
     BatchNorm2d-168          [-1, 1024, 16, 8]           2,048
            ReLU-169          [-1, 1024, 16, 8]               0
      Bottleneck-170          [-1, 1024, 16, 8]               0
          Conv2d-171           [-1, 256, 16, 8]         262,144
     BatchNorm2d-172           [-1, 256, 16, 8]             512
            ReLU-173           [-1, 256, 16, 8]               0
          Conv2d-174           [-1, 256, 16, 8]         589,824
     BatchNorm2d-175           [-1, 256, 16, 8]             512
            ReLU-176           [-1, 256, 16, 8]               0
          Conv2d-177          [-1, 1024, 16, 8]         262,144
     BatchNorm2d-178          [-1, 1024, 16, 8]           2,048
            ReLU-179          [-1, 1024, 16, 8]               0
      Bottleneck-180          [-1, 1024, 16, 8]               0
          Conv2d-181           [-1, 256, 16, 8]         262,144
     BatchNorm2d-182           [-1, 256, 16, 8]             512
            ReLU-183           [-1, 256, 16, 8]               0
          Conv2d-184           [-1, 256, 16, 8]         589,824
     BatchNorm2d-185           [-1, 256, 16, 8]             512
            ReLU-186           [-1, 256, 16, 8]               0
          Conv2d-187          [-1, 1024, 16, 8]         262,144
     BatchNorm2d-188          [-1, 1024, 16, 8]           2,048
            ReLU-189          [-1, 1024, 16, 8]               0
      Bottleneck-190          [-1, 1024, 16, 8]               0
          Conv2d-191           [-1, 256, 16, 8]         262,144
     BatchNorm2d-192           [-1, 256, 16, 8]             512
            ReLU-193           [-1, 256, 16, 8]               0
          Conv2d-194           [-1, 256, 16, 8]         589,824
     BatchNorm2d-195           [-1, 256, 16, 8]             512
            ReLU-196           [-1, 256, 16, 8]               0
          Conv2d-197          [-1, 1024, 16, 8]         262,144
     BatchNorm2d-198          [-1, 1024, 16, 8]           2,048
            ReLU-199          [-1, 1024, 16, 8]               0
      Bottleneck-200          [-1, 1024, 16, 8]               0
          Conv2d-201           [-1, 256, 16, 8]         262,144
     BatchNorm2d-202           [-1, 256, 16, 8]             512
            ReLU-203           [-1, 256, 16, 8]               0
          Conv2d-204           [-1, 256, 16, 8]         589,824
     BatchNorm2d-205           [-1, 256, 16, 8]             512
            ReLU-206           [-1, 256, 16, 8]               0
          Conv2d-207          [-1, 1024, 16, 8]         262,144
     BatchNorm2d-208          [-1, 1024, 16, 8]           2,048
            ReLU-209          [-1, 1024, 16, 8]               0
      Bottleneck-210          [-1, 1024, 16, 8]               0
          Conv2d-211           [-1, 256, 16, 8]         262,144
     BatchNorm2d-212           [-1, 256, 16, 8]             512
            ReLU-213           [-1, 256, 16, 8]               0
          Conv2d-214           [-1, 256, 16, 8]         589,824
     BatchNorm2d-215           [-1, 256, 16, 8]             512
            ReLU-216           [-1, 256, 16, 8]               0
          Conv2d-217          [-1, 1024, 16, 8]         262,144
     BatchNorm2d-218          [-1, 1024, 16, 8]           2,048
            ReLU-219          [-1, 1024, 16, 8]               0
      Bottleneck-220          [-1, 1024, 16, 8]               0
          Conv2d-221           [-1, 256, 16, 8]         262,144
     BatchNorm2d-222           [-1, 256, 16, 8]             512
            ReLU-223           [-1, 256, 16, 8]               0
          Conv2d-224           [-1, 256, 16, 8]         589,824
     BatchNorm2d-225           [-1, 256, 16, 8]             512
            ReLU-226           [-1, 256, 16, 8]               0
          Conv2d-227          [-1, 1024, 16, 8]         262,144
     BatchNorm2d-228          [-1, 1024, 16, 8]           2,048
            ReLU-229          [-1, 1024, 16, 8]               0
      Bottleneck-230          [-1, 1024, 16, 8]               0
          Conv2d-231           [-1, 256, 16, 8]         262,144
     BatchNorm2d-232           [-1, 256, 16, 8]             512
            ReLU-233           [-1, 256, 16, 8]               0
          Conv2d-234           [-1, 256, 16, 8]         589,824
     BatchNorm2d-235           [-1, 256, 16, 8]             512
            ReLU-236           [-1, 256, 16, 8]               0
          Conv2d-237          [-1, 1024, 16, 8]         262,144
     BatchNorm2d-238          [-1, 1024, 16, 8]           2,048
            ReLU-239          [-1, 1024, 16, 8]               0
      Bottleneck-240          [-1, 1024, 16, 8]               0
          Conv2d-241           [-1, 256, 16, 8]         262,144
     BatchNorm2d-242           [-1, 256, 16, 8]             512
            ReLU-243           [-1, 256, 16, 8]               0
          Conv2d-244           [-1, 256, 16, 8]         589,824
     BatchNorm2d-245           [-1, 256, 16, 8]             512
            ReLU-246           [-1, 256, 16, 8]               0
          Conv2d-247          [-1, 1024, 16, 8]         262,144
     BatchNorm2d-248          [-1, 1024, 16, 8]           2,048
            ReLU-249          [-1, 1024, 16, 8]               0
      Bottleneck-250          [-1, 1024, 16, 8]               0
          Conv2d-251           [-1, 256, 16, 8]         262,144
     BatchNorm2d-252           [-1, 256, 16, 8]             512
            ReLU-253           [-1, 256, 16, 8]               0
          Conv2d-254           [-1, 256, 16, 8]         589,824
     BatchNorm2d-255           [-1, 256, 16, 8]             512
            ReLU-256           [-1, 256, 16, 8]               0
          Conv2d-257          [-1, 1024, 16, 8]         262,144
     BatchNorm2d-258          [-1, 1024, 16, 8]           2,048
            ReLU-259          [-1, 1024, 16, 8]               0
      Bottleneck-260          [-1, 1024, 16, 8]               0
          Conv2d-261           [-1, 256, 16, 8]         262,144
     BatchNorm2d-262           [-1, 256, 16, 8]             512
            ReLU-263           [-1, 256, 16, 8]               0
          Conv2d-264           [-1, 256, 16, 8]         589,824
     BatchNorm2d-265           [-1, 256, 16, 8]             512
            ReLU-266           [-1, 256, 16, 8]               0
          Conv2d-267          [-1, 1024, 16, 8]         262,144
     BatchNorm2d-268          [-1, 1024, 16, 8]           2,048
            ReLU-269          [-1, 1024, 16, 8]               0
      Bottleneck-270          [-1, 1024, 16, 8]               0
          Conv2d-271           [-1, 256, 16, 8]         262,144
     BatchNorm2d-272           [-1, 256, 16, 8]             512
            ReLU-273           [-1, 256, 16, 8]               0
          Conv2d-274           [-1, 256, 16, 8]         589,824
     BatchNorm2d-275           [-1, 256, 16, 8]             512
            ReLU-276           [-1, 256, 16, 8]               0
          Conv2d-277          [-1, 1024, 16, 8]         262,144
     BatchNorm2d-278          [-1, 1024, 16, 8]           2,048
            ReLU-279          [-1, 1024, 16, 8]               0
      Bottleneck-280          [-1, 1024, 16, 8]               0
          Conv2d-281           [-1, 256, 16, 8]         262,144
     BatchNorm2d-282           [-1, 256, 16, 8]             512
            ReLU-283           [-1, 256, 16, 8]               0
          Conv2d-284           [-1, 256, 16, 8]         589,824
     BatchNorm2d-285           [-1, 256, 16, 8]             512
            ReLU-286           [-1, 256, 16, 8]               0
          Conv2d-287          [-1, 1024, 16, 8]         262,144
     BatchNorm2d-288          [-1, 1024, 16, 8]           2,048
            ReLU-289          [-1, 1024, 16, 8]               0
      Bottleneck-290          [-1, 1024, 16, 8]               0
          Conv2d-291           [-1, 256, 16, 8]         262,144
     BatchNorm2d-292           [-1, 256, 16, 8]             512
            ReLU-293           [-1, 256, 16, 8]               0
          Conv2d-294           [-1, 256, 16, 8]         589,824
     BatchNorm2d-295           [-1, 256, 16, 8]             512
            ReLU-296           [-1, 256, 16, 8]               0
          Conv2d-297          [-1, 1024, 16, 8]         262,144
     BatchNorm2d-298          [-1, 1024, 16, 8]           2,048
            ReLU-299          [-1, 1024, 16, 8]               0
      Bottleneck-300          [-1, 1024, 16, 8]               0
          Conv2d-301           [-1, 256, 16, 8]         262,144
     BatchNorm2d-302           [-1, 256, 16, 8]             512
            ReLU-303           [-1, 256, 16, 8]               0
          Conv2d-304           [-1, 256, 16, 8]         589,824
     BatchNorm2d-305           [-1, 256, 16, 8]             512
            ReLU-306           [-1, 256, 16, 8]               0
          Conv2d-307          [-1, 1024, 16, 8]         262,144
     BatchNorm2d-308          [-1, 1024, 16, 8]           2,048
            ReLU-309          [-1, 1024, 16, 8]               0
      Bottleneck-310          [-1, 1024, 16, 8]               0
          Conv2d-311           [-1, 256, 16, 8]         262,144
     BatchNorm2d-312           [-1, 256, 16, 8]             512
            ReLU-313           [-1, 256, 16, 8]               0
          Conv2d-314           [-1, 256, 16, 8]         589,824
     BatchNorm2d-315           [-1, 256, 16, 8]             512
            ReLU-316           [-1, 256, 16, 8]               0
          Conv2d-317          [-1, 1024, 16, 8]         262,144
     BatchNorm2d-318          [-1, 1024, 16, 8]           2,048
            ReLU-319          [-1, 1024, 16, 8]               0
      Bottleneck-320          [-1, 1024, 16, 8]               0
          Conv2d-321           [-1, 256, 16, 8]         262,144
     BatchNorm2d-322           [-1, 256, 16, 8]             512
            ReLU-323           [-1, 256, 16, 8]               0
          Conv2d-324           [-1, 256, 16, 8]         589,824
     BatchNorm2d-325           [-1, 256, 16, 8]             512
            ReLU-326           [-1, 256, 16, 8]               0
          Conv2d-327          [-1, 1024, 16, 8]         262,144
     BatchNorm2d-328          [-1, 1024, 16, 8]           2,048
            ReLU-329          [-1, 1024, 16, 8]               0
      Bottleneck-330          [-1, 1024, 16, 8]               0
          Conv2d-331           [-1, 256, 16, 8]         262,144
     BatchNorm2d-332           [-1, 256, 16, 8]             512
            ReLU-333           [-1, 256, 16, 8]               0
          Conv2d-334           [-1, 256, 16, 8]         589,824
     BatchNorm2d-335           [-1, 256, 16, 8]             512
            ReLU-336           [-1, 256, 16, 8]               0
          Conv2d-337          [-1, 1024, 16, 8]         262,144
     BatchNorm2d-338          [-1, 1024, 16, 8]           2,048
            ReLU-339          [-1, 1024, 16, 8]               0
      Bottleneck-340          [-1, 1024, 16, 8]               0
          Conv2d-341           [-1, 256, 16, 8]         262,144
     BatchNorm2d-342           [-1, 256, 16, 8]             512
            ReLU-343           [-1, 256, 16, 8]               0
          Conv2d-344           [-1, 256, 16, 8]         589,824
     BatchNorm2d-345           [-1, 256, 16, 8]             512
            ReLU-346           [-1, 256, 16, 8]               0
          Conv2d-347          [-1, 1024, 16, 8]         262,144
     BatchNorm2d-348          [-1, 1024, 16, 8]           2,048
            ReLU-349          [-1, 1024, 16, 8]               0
      Bottleneck-350          [-1, 1024, 16, 8]               0
          Conv2d-351           [-1, 256, 16, 8]         262,144
     BatchNorm2d-352           [-1, 256, 16, 8]             512
            ReLU-353           [-1, 256, 16, 8]               0
          Conv2d-354           [-1, 256, 16, 8]         589,824
     BatchNorm2d-355           [-1, 256, 16, 8]             512
            ReLU-356           [-1, 256, 16, 8]               0
          Conv2d-357          [-1, 1024, 16, 8]         262,144
     BatchNorm2d-358          [-1, 1024, 16, 8]           2,048
            ReLU-359          [-1, 1024, 16, 8]               0
      Bottleneck-360          [-1, 1024, 16, 8]               0
          Conv2d-361           [-1, 256, 16, 8]         262,144
     BatchNorm2d-362           [-1, 256, 16, 8]             512
            ReLU-363           [-1, 256, 16, 8]               0
          Conv2d-364           [-1, 256, 16, 8]         589,824
     BatchNorm2d-365           [-1, 256, 16, 8]             512
            ReLU-366           [-1, 256, 16, 8]               0
          Conv2d-367          [-1, 1024, 16, 8]         262,144
     BatchNorm2d-368          [-1, 1024, 16, 8]           2,048
            ReLU-369          [-1, 1024, 16, 8]               0
      Bottleneck-370          [-1, 1024, 16, 8]               0
          Conv2d-371           [-1, 256, 16, 8]         262,144
     BatchNorm2d-372           [-1, 256, 16, 8]             512
            ReLU-373           [-1, 256, 16, 8]               0
          Conv2d-374           [-1, 256, 16, 8]         589,824
     BatchNorm2d-375           [-1, 256, 16, 8]             512
            ReLU-376           [-1, 256, 16, 8]               0
          Conv2d-377          [-1, 1024, 16, 8]         262,144
     BatchNorm2d-378          [-1, 1024, 16, 8]           2,048
            ReLU-379          [-1, 1024, 16, 8]               0
      Bottleneck-380          [-1, 1024, 16, 8]               0
          Conv2d-381           [-1, 256, 16, 8]         262,144
     BatchNorm2d-382           [-1, 256, 16, 8]             512
            ReLU-383           [-1, 256, 16, 8]               0
          Conv2d-384           [-1, 256, 16, 8]         589,824
     BatchNorm2d-385           [-1, 256, 16, 8]             512
            ReLU-386           [-1, 256, 16, 8]               0
          Conv2d-387          [-1, 1024, 16, 8]         262,144
     BatchNorm2d-388          [-1, 1024, 16, 8]           2,048
            ReLU-389          [-1, 1024, 16, 8]               0
      Bottleneck-390          [-1, 1024, 16, 8]               0
          Conv2d-391           [-1, 256, 16, 8]         262,144
     BatchNorm2d-392           [-1, 256, 16, 8]             512
            ReLU-393           [-1, 256, 16, 8]               0
          Conv2d-394           [-1, 256, 16, 8]         589,824
     BatchNorm2d-395           [-1, 256, 16, 8]             512
            ReLU-396           [-1, 256, 16, 8]               0
          Conv2d-397          [-1, 1024, 16, 8]         262,144
     BatchNorm2d-398          [-1, 1024, 16, 8]           2,048
            ReLU-399          [-1, 1024, 16, 8]               0
      Bottleneck-400          [-1, 1024, 16, 8]               0
          Conv2d-401           [-1, 256, 16, 8]         262,144
     BatchNorm2d-402           [-1, 256, 16, 8]             512
            ReLU-403           [-1, 256, 16, 8]               0
          Conv2d-404           [-1, 256, 16, 8]         589,824
     BatchNorm2d-405           [-1, 256, 16, 8]             512
            ReLU-406           [-1, 256, 16, 8]               0
          Conv2d-407          [-1, 1024, 16, 8]         262,144
     BatchNorm2d-408          [-1, 1024, 16, 8]           2,048
            ReLU-409          [-1, 1024, 16, 8]               0
      Bottleneck-410          [-1, 1024, 16, 8]               0
          Conv2d-411           [-1, 256, 16, 8]         262,144
     BatchNorm2d-412           [-1, 256, 16, 8]             512
            ReLU-413           [-1, 256, 16, 8]               0
          Conv2d-414           [-1, 256, 16, 8]         589,824
     BatchNorm2d-415           [-1, 256, 16, 8]             512
            ReLU-416           [-1, 256, 16, 8]               0
          Conv2d-417          [-1, 1024, 16, 8]         262,144
     BatchNorm2d-418          [-1, 1024, 16, 8]           2,048
            ReLU-419          [-1, 1024, 16, 8]               0
      Bottleneck-420          [-1, 1024, 16, 8]               0
          Conv2d-421           [-1, 256, 16, 8]         262,144
     BatchNorm2d-422           [-1, 256, 16, 8]             512
            ReLU-423           [-1, 256, 16, 8]               0
          Conv2d-424           [-1, 256, 16, 8]         589,824
     BatchNorm2d-425           [-1, 256, 16, 8]             512
            ReLU-426           [-1, 256, 16, 8]               0
          Conv2d-427          [-1, 1024, 16, 8]         262,144
     BatchNorm2d-428          [-1, 1024, 16, 8]           2,048
            ReLU-429          [-1, 1024, 16, 8]               0
      Bottleneck-430          [-1, 1024, 16, 8]               0
          Conv2d-431           [-1, 256, 16, 8]         262,144
     BatchNorm2d-432           [-1, 256, 16, 8]             512
            ReLU-433           [-1, 256, 16, 8]               0
          Conv2d-434           [-1, 256, 16, 8]         589,824
     BatchNorm2d-435           [-1, 256, 16, 8]             512
            ReLU-436           [-1, 256, 16, 8]               0
          Conv2d-437          [-1, 1024, 16, 8]         262,144
     BatchNorm2d-438          [-1, 1024, 16, 8]           2,048
            ReLU-439          [-1, 1024, 16, 8]               0
      Bottleneck-440          [-1, 1024, 16, 8]               0
          Conv2d-441           [-1, 256, 16, 8]         262,144
     BatchNorm2d-442           [-1, 256, 16, 8]             512
            ReLU-443           [-1, 256, 16, 8]               0
          Conv2d-444           [-1, 256, 16, 8]         589,824
     BatchNorm2d-445           [-1, 256, 16, 8]             512
            ReLU-446           [-1, 256, 16, 8]               0
          Conv2d-447          [-1, 1024, 16, 8]         262,144
     BatchNorm2d-448          [-1, 1024, 16, 8]           2,048
            ReLU-449          [-1, 1024, 16, 8]               0
      Bottleneck-450          [-1, 1024, 16, 8]               0
          Conv2d-451           [-1, 256, 16, 8]         262,144
     BatchNorm2d-452           [-1, 256, 16, 8]             512
            ReLU-453           [-1, 256, 16, 8]               0
          Conv2d-454           [-1, 256, 16, 8]         589,824
     BatchNorm2d-455           [-1, 256, 16, 8]             512
            ReLU-456           [-1, 256, 16, 8]               0
          Conv2d-457          [-1, 1024, 16, 8]         262,144
     BatchNorm2d-458          [-1, 1024, 16, 8]           2,048
            ReLU-459          [-1, 1024, 16, 8]               0
      Bottleneck-460          [-1, 1024, 16, 8]               0
          Conv2d-461           [-1, 256, 16, 8]         262,144
     BatchNorm2d-462           [-1, 256, 16, 8]             512
            ReLU-463           [-1, 256, 16, 8]               0
          Conv2d-464           [-1, 256, 16, 8]         589,824
     BatchNorm2d-465           [-1, 256, 16, 8]             512
            ReLU-466           [-1, 256, 16, 8]               0
          Conv2d-467          [-1, 1024, 16, 8]         262,144
     BatchNorm2d-468          [-1, 1024, 16, 8]           2,048
            ReLU-469          [-1, 1024, 16, 8]               0
      Bottleneck-470          [-1, 1024, 16, 8]               0
          Conv2d-471           [-1, 256, 16, 8]         262,144
     BatchNorm2d-472           [-1, 256, 16, 8]             512
            ReLU-473           [-1, 256, 16, 8]               0
          Conv2d-474           [-1, 256, 16, 8]         589,824
     BatchNorm2d-475           [-1, 256, 16, 8]             512
            ReLU-476           [-1, 256, 16, 8]               0
          Conv2d-477          [-1, 1024, 16, 8]         262,144
     BatchNorm2d-478          [-1, 1024, 16, 8]           2,048
            ReLU-479          [-1, 1024, 16, 8]               0
      Bottleneck-480          [-1, 1024, 16, 8]               0
          Conv2d-481           [-1, 512, 16, 8]         524,288
     BatchNorm2d-482           [-1, 512, 16, 8]           1,024
            ReLU-483           [-1, 512, 16, 8]               0
          Conv2d-484           [-1, 512, 16, 8]       2,359,296
     BatchNorm2d-485           [-1, 512, 16, 8]           1,024
            ReLU-486           [-1, 512, 16, 8]               0
          Conv2d-487          [-1, 2048, 16, 8]       1,048,576
     BatchNorm2d-488          [-1, 2048, 16, 8]           4,096
          Conv2d-489          [-1, 2048, 16, 8]       2,097,152
     BatchNorm2d-490          [-1, 2048, 16, 8]           4,096
            ReLU-491          [-1, 2048, 16, 8]               0
      Bottleneck-492          [-1, 2048, 16, 8]               0
          Conv2d-493           [-1, 512, 16, 8]       1,048,576
     BatchNorm2d-494           [-1, 512, 16, 8]           1,024
            ReLU-495           [-1, 512, 16, 8]               0
          Conv2d-496           [-1, 512, 16, 8]       2,359,296
     BatchNorm2d-497           [-1, 512, 16, 8]           1,024
            ReLU-498           [-1, 512, 16, 8]               0
          Conv2d-499          [-1, 2048, 16, 8]       1,048,576
     BatchNorm2d-500          [-1, 2048, 16, 8]           4,096
            ReLU-501          [-1, 2048, 16, 8]               0
      Bottleneck-502          [-1, 2048, 16, 8]               0
          Conv2d-503           [-1, 512, 16, 8]       1,048,576
     BatchNorm2d-504           [-1, 512, 16, 8]           1,024
            ReLU-505           [-1, 512, 16, 8]               0
          Conv2d-506           [-1, 512, 16, 8]       2,359,296
     BatchNorm2d-507           [-1, 512, 16, 8]           1,024
            ReLU-508           [-1, 512, 16, 8]               0
          Conv2d-509          [-1, 2048, 16, 8]       1,048,576
     BatchNorm2d-510          [-1, 2048, 16, 8]           4,096
            ReLU-511          [-1, 2048, 16, 8]               0
      Bottleneck-512          [-1, 2048, 16, 8]               0
================================================================
Total params: 58,143,808
Trainable params: 58,143,808
Non-trainable params: 0
----------------------------------------------------------------
Input size (MB): 0.38
Forward/backward pass size (MB): 422.75
Params size (MB): 221.80
Estimated Total Size (MB): 644.93
----------------------------------------------------------------
**************************************************
resnext50_32x4d
----------------------------------------------------------------
        Layer (type)               Output Shape         Param #
================================================================
            Conv2d-1          [-1, 64, 128, 64]           9,408
       BatchNorm2d-2          [-1, 64, 128, 64]             128
              ReLU-3          [-1, 64, 128, 64]               0
         MaxPool2d-4           [-1, 64, 64, 32]               0
            Conv2d-5          [-1, 128, 64, 32]           8,192
       BatchNorm2d-6          [-1, 128, 64, 32]             256
              ReLU-7          [-1, 128, 64, 32]               0
            Conv2d-8          [-1, 128, 64, 32]           4,608
       BatchNorm2d-9          [-1, 128, 64, 32]             256
             ReLU-10          [-1, 128, 64, 32]               0
           Conv2d-11          [-1, 256, 64, 32]          32,768
      BatchNorm2d-12          [-1, 256, 64, 32]             512
           Conv2d-13          [-1, 256, 64, 32]          16,384
      BatchNorm2d-14          [-1, 256, 64, 32]             512
             ReLU-15          [-1, 256, 64, 32]               0
       Bottleneck-16          [-1, 256, 64, 32]               0
           Conv2d-17          [-1, 128, 64, 32]          32,768
      BatchNorm2d-18          [-1, 128, 64, 32]             256
             ReLU-19          [-1, 128, 64, 32]               0
           Conv2d-20          [-1, 128, 64, 32]           4,608
      BatchNorm2d-21          [-1, 128, 64, 32]             256
             ReLU-22          [-1, 128, 64, 32]               0
           Conv2d-23          [-1, 256, 64, 32]          32,768
      BatchNorm2d-24          [-1, 256, 64, 32]             512
             ReLU-25          [-1, 256, 64, 32]               0
       Bottleneck-26          [-1, 256, 64, 32]               0
           Conv2d-27          [-1, 128, 64, 32]          32,768
      BatchNorm2d-28          [-1, 128, 64, 32]             256
             ReLU-29          [-1, 128, 64, 32]               0
           Conv2d-30          [-1, 128, 64, 32]           4,608
      BatchNorm2d-31          [-1, 128, 64, 32]             256
             ReLU-32          [-1, 128, 64, 32]               0
           Conv2d-33          [-1, 256, 64, 32]          32,768
      BatchNorm2d-34          [-1, 256, 64, 32]             512
             ReLU-35          [-1, 256, 64, 32]               0
       Bottleneck-36          [-1, 256, 64, 32]               0
           Conv2d-37          [-1, 256, 64, 32]          65,536
      BatchNorm2d-38          [-1, 256, 64, 32]             512
             ReLU-39          [-1, 256, 64, 32]               0
           Conv2d-40          [-1, 256, 32, 16]          18,432
      BatchNorm2d-41          [-1, 256, 32, 16]             512
             ReLU-42          [-1, 256, 32, 16]               0
           Conv2d-43          [-1, 512, 32, 16]         131,072
      BatchNorm2d-44          [-1, 512, 32, 16]           1,024
           Conv2d-45          [-1, 512, 32, 16]         131,072
      BatchNorm2d-46          [-1, 512, 32, 16]           1,024
             ReLU-47          [-1, 512, 32, 16]               0
       Bottleneck-48          [-1, 512, 32, 16]               0
           Conv2d-49          [-1, 256, 32, 16]         131,072
      BatchNorm2d-50          [-1, 256, 32, 16]             512
             ReLU-51          [-1, 256, 32, 16]               0
           Conv2d-52          [-1, 256, 32, 16]          18,432
      BatchNorm2d-53          [-1, 256, 32, 16]             512
             ReLU-54          [-1, 256, 32, 16]               0
           Conv2d-55          [-1, 512, 32, 16]         131,072
      BatchNorm2d-56          [-1, 512, 32, 16]           1,024
             ReLU-57          [-1, 512, 32, 16]               0
       Bottleneck-58          [-1, 512, 32, 16]               0
           Conv2d-59          [-1, 256, 32, 16]         131,072
      BatchNorm2d-60          [-1, 256, 32, 16]             512
             ReLU-61          [-1, 256, 32, 16]               0
           Conv2d-62          [-1, 256, 32, 16]          18,432
      BatchNorm2d-63          [-1, 256, 32, 16]             512
             ReLU-64          [-1, 256, 32, 16]               0
           Conv2d-65          [-1, 512, 32, 16]         131,072
      BatchNorm2d-66          [-1, 512, 32, 16]           1,024
             ReLU-67          [-1, 512, 32, 16]               0
       Bottleneck-68          [-1, 512, 32, 16]               0
           Conv2d-69          [-1, 256, 32, 16]         131,072
      BatchNorm2d-70          [-1, 256, 32, 16]             512
             ReLU-71          [-1, 256, 32, 16]               0
           Conv2d-72          [-1, 256, 32, 16]          18,432
      BatchNorm2d-73          [-1, 256, 32, 16]             512
             ReLU-74          [-1, 256, 32, 16]               0
           Conv2d-75          [-1, 512, 32, 16]         131,072
      BatchNorm2d-76          [-1, 512, 32, 16]           1,024
             ReLU-77          [-1, 512, 32, 16]               0
       Bottleneck-78          [-1, 512, 32, 16]               0
           Conv2d-79          [-1, 512, 32, 16]         262,144
      BatchNorm2d-80          [-1, 512, 32, 16]           1,024
             ReLU-81          [-1, 512, 32, 16]               0
           Conv2d-82           [-1, 512, 16, 8]          73,728
      BatchNorm2d-83           [-1, 512, 16, 8]           1,024
             ReLU-84           [-1, 512, 16, 8]               0
           Conv2d-85          [-1, 1024, 16, 8]         524,288
      BatchNorm2d-86          [-1, 1024, 16, 8]           2,048
           Conv2d-87          [-1, 1024, 16, 8]         524,288
      BatchNorm2d-88          [-1, 1024, 16, 8]           2,048
             ReLU-89          [-1, 1024, 16, 8]               0
       Bottleneck-90          [-1, 1024, 16, 8]               0
           Conv2d-91           [-1, 512, 16, 8]         524,288
      BatchNorm2d-92           [-1, 512, 16, 8]           1,024
             ReLU-93           [-1, 512, 16, 8]               0
           Conv2d-94           [-1, 512, 16, 8]          73,728
      BatchNorm2d-95           [-1, 512, 16, 8]           1,024
             ReLU-96           [-1, 512, 16, 8]               0
           Conv2d-97          [-1, 1024, 16, 8]         524,288
      BatchNorm2d-98          [-1, 1024, 16, 8]           2,048
             ReLU-99          [-1, 1024, 16, 8]               0
      Bottleneck-100          [-1, 1024, 16, 8]               0
          Conv2d-101           [-1, 512, 16, 8]         524,288
     BatchNorm2d-102           [-1, 512, 16, 8]           1,024
            ReLU-103           [-1, 512, 16, 8]               0
          Conv2d-104           [-1, 512, 16, 8]          73,728
     BatchNorm2d-105           [-1, 512, 16, 8]           1,024
            ReLU-106           [-1, 512, 16, 8]               0
          Conv2d-107          [-1, 1024, 16, 8]         524,288
     BatchNorm2d-108          [-1, 1024, 16, 8]           2,048
            ReLU-109          [-1, 1024, 16, 8]               0
      Bottleneck-110          [-1, 1024, 16, 8]               0
          Conv2d-111           [-1, 512, 16, 8]         524,288
     BatchNorm2d-112           [-1, 512, 16, 8]           1,024
            ReLU-113           [-1, 512, 16, 8]               0
          Conv2d-114           [-1, 512, 16, 8]          73,728
     BatchNorm2d-115           [-1, 512, 16, 8]           1,024
            ReLU-116           [-1, 512, 16, 8]               0
          Conv2d-117          [-1, 1024, 16, 8]         524,288
     BatchNorm2d-118          [-1, 1024, 16, 8]           2,048
            ReLU-119          [-1, 1024, 16, 8]               0
      Bottleneck-120          [-1, 1024, 16, 8]               0
          Conv2d-121           [-1, 512, 16, 8]         524,288
     BatchNorm2d-122           [-1, 512, 16, 8]           1,024
            ReLU-123           [-1, 512, 16, 8]               0
          Conv2d-124           [-1, 512, 16, 8]          73,728
     BatchNorm2d-125           [-1, 512, 16, 8]           1,024
            ReLU-126           [-1, 512, 16, 8]               0
          Conv2d-127          [-1, 1024, 16, 8]         524,288
     BatchNorm2d-128          [-1, 1024, 16, 8]           2,048
            ReLU-129          [-1, 1024, 16, 8]               0
      Bottleneck-130          [-1, 1024, 16, 8]               0
          Conv2d-131           [-1, 512, 16, 8]         524,288
     BatchNorm2d-132           [-1, 512, 16, 8]           1,024
            ReLU-133           [-1, 512, 16, 8]               0
          Conv2d-134           [-1, 512, 16, 8]          73,728
     BatchNorm2d-135           [-1, 512, 16, 8]           1,024
            ReLU-136           [-1, 512, 16, 8]               0
          Conv2d-137          [-1, 1024, 16, 8]         524,288
     BatchNorm2d-138          [-1, 1024, 16, 8]           2,048
            ReLU-139          [-1, 1024, 16, 8]               0
      Bottleneck-140          [-1, 1024, 16, 8]               0
          Conv2d-141          [-1, 1024, 16, 8]       1,048,576
     BatchNorm2d-142          [-1, 1024, 16, 8]           2,048
            ReLU-143          [-1, 1024, 16, 8]               0
          Conv2d-144          [-1, 1024, 16, 8]         294,912
     BatchNorm2d-145          [-1, 1024, 16, 8]           2,048
            ReLU-146          [-1, 1024, 16, 8]               0
          Conv2d-147          [-1, 2048, 16, 8]       2,097,152
     BatchNorm2d-148          [-1, 2048, 16, 8]           4,096
          Conv2d-149          [-1, 2048, 16, 8]       2,097,152
     BatchNorm2d-150          [-1, 2048, 16, 8]           4,096
            ReLU-151          [-1, 2048, 16, 8]               0
      Bottleneck-152          [-1, 2048, 16, 8]               0
          Conv2d-153          [-1, 1024, 16, 8]       2,097,152
     BatchNorm2d-154          [-1, 1024, 16, 8]           2,048
            ReLU-155          [-1, 1024, 16, 8]               0
          Conv2d-156          [-1, 1024, 16, 8]         294,912
     BatchNorm2d-157          [-1, 1024, 16, 8]           2,048
            ReLU-158          [-1, 1024, 16, 8]               0
          Conv2d-159          [-1, 2048, 16, 8]       2,097,152
     BatchNorm2d-160          [-1, 2048, 16, 8]           4,096
            ReLU-161          [-1, 2048, 16, 8]               0
      Bottleneck-162          [-1, 2048, 16, 8]               0
          Conv2d-163          [-1, 1024, 16, 8]       2,097,152
     BatchNorm2d-164          [-1, 1024, 16, 8]           2,048
            ReLU-165          [-1, 1024, 16, 8]               0
          Conv2d-166          [-1, 1024, 16, 8]         294,912
     BatchNorm2d-167          [-1, 1024, 16, 8]           2,048
            ReLU-168          [-1, 1024, 16, 8]               0
          Conv2d-169          [-1, 2048, 16, 8]       2,097,152
     BatchNorm2d-170          [-1, 2048, 16, 8]           4,096
            ReLU-171          [-1, 2048, 16, 8]               0
      Bottleneck-172          [-1, 2048, 16, 8]               0
================================================================
Total params: 22,979,904
Trainable params: 22,979,904
Non-trainable params: 0
----------------------------------------------------------------
Input size (MB): 0.38
Forward/backward pass size (MB): 268.50
Params size (MB): 87.66
Estimated Total Size (MB): 356.54
----------------------------------------------------------------
**************************************************
resnext101_32x8d
----------------------------------------------------------------
        Layer (type)               Output Shape         Param #
================================================================
            Conv2d-1          [-1, 64, 128, 64]           9,408
       BatchNorm2d-2          [-1, 64, 128, 64]             128
              ReLU-3          [-1, 64, 128, 64]               0
         MaxPool2d-4           [-1, 64, 64, 32]               0
            Conv2d-5          [-1, 256, 64, 32]          16,384
       BatchNorm2d-6          [-1, 256, 64, 32]             512
              ReLU-7          [-1, 256, 64, 32]               0
            Conv2d-8          [-1, 256, 64, 32]          18,432
       BatchNorm2d-9          [-1, 256, 64, 32]             512
             ReLU-10          [-1, 256, 64, 32]               0
           Conv2d-11          [-1, 256, 64, 32]          65,536
      BatchNorm2d-12          [-1, 256, 64, 32]             512
           Conv2d-13          [-1, 256, 64, 32]          16,384
      BatchNorm2d-14          [-1, 256, 64, 32]             512
             ReLU-15          [-1, 256, 64, 32]               0
       Bottleneck-16          [-1, 256, 64, 32]               0
           Conv2d-17          [-1, 256, 64, 32]          65,536
      BatchNorm2d-18          [-1, 256, 64, 32]             512
             ReLU-19          [-1, 256, 64, 32]               0
           Conv2d-20          [-1, 256, 64, 32]          18,432
      BatchNorm2d-21          [-1, 256, 64, 32]             512
             ReLU-22          [-1, 256, 64, 32]               0
           Conv2d-23          [-1, 256, 64, 32]          65,536
      BatchNorm2d-24          [-1, 256, 64, 32]             512
             ReLU-25          [-1, 256, 64, 32]               0
       Bottleneck-26          [-1, 256, 64, 32]               0
           Conv2d-27          [-1, 256, 64, 32]          65,536
      BatchNorm2d-28          [-1, 256, 64, 32]             512
             ReLU-29          [-1, 256, 64, 32]               0
           Conv2d-30          [-1, 256, 64, 32]          18,432
      BatchNorm2d-31          [-1, 256, 64, 32]             512
             ReLU-32          [-1, 256, 64, 32]               0
           Conv2d-33          [-1, 256, 64, 32]          65,536
      BatchNorm2d-34          [-1, 256, 64, 32]             512
             ReLU-35          [-1, 256, 64, 32]               0
       Bottleneck-36          [-1, 256, 64, 32]               0
           Conv2d-37          [-1, 512, 64, 32]         131,072
      BatchNorm2d-38          [-1, 512, 64, 32]           1,024
             ReLU-39          [-1, 512, 64, 32]               0
           Conv2d-40          [-1, 512, 32, 16]          73,728
      BatchNorm2d-41          [-1, 512, 32, 16]           1,024
             ReLU-42          [-1, 512, 32, 16]               0
           Conv2d-43          [-1, 512, 32, 16]         262,144
      BatchNorm2d-44          [-1, 512, 32, 16]           1,024
           Conv2d-45          [-1, 512, 32, 16]         131,072
      BatchNorm2d-46          [-1, 512, 32, 16]           1,024
             ReLU-47          [-1, 512, 32, 16]               0
       Bottleneck-48          [-1, 512, 32, 16]               0
           Conv2d-49          [-1, 512, 32, 16]         262,144
      BatchNorm2d-50          [-1, 512, 32, 16]           1,024
             ReLU-51          [-1, 512, 32, 16]               0
           Conv2d-52          [-1, 512, 32, 16]          73,728
      BatchNorm2d-53          [-1, 512, 32, 16]           1,024
             ReLU-54          [-1, 512, 32, 16]               0
           Conv2d-55          [-1, 512, 32, 16]         262,144
      BatchNorm2d-56          [-1, 512, 32, 16]           1,024
             ReLU-57          [-1, 512, 32, 16]               0
       Bottleneck-58          [-1, 512, 32, 16]               0
           Conv2d-59          [-1, 512, 32, 16]         262,144
      BatchNorm2d-60          [-1, 512, 32, 16]           1,024
             ReLU-61          [-1, 512, 32, 16]               0
           Conv2d-62          [-1, 512, 32, 16]          73,728
      BatchNorm2d-63          [-1, 512, 32, 16]           1,024
             ReLU-64          [-1, 512, 32, 16]               0
           Conv2d-65          [-1, 512, 32, 16]         262,144
      BatchNorm2d-66          [-1, 512, 32, 16]           1,024
             ReLU-67          [-1, 512, 32, 16]               0
       Bottleneck-68          [-1, 512, 32, 16]               0
           Conv2d-69          [-1, 512, 32, 16]         262,144
      BatchNorm2d-70          [-1, 512, 32, 16]           1,024
             ReLU-71          [-1, 512, 32, 16]               0
           Conv2d-72          [-1, 512, 32, 16]          73,728
      BatchNorm2d-73          [-1, 512, 32, 16]           1,024
             ReLU-74          [-1, 512, 32, 16]               0
           Conv2d-75          [-1, 512, 32, 16]         262,144
      BatchNorm2d-76          [-1, 512, 32, 16]           1,024
             ReLU-77          [-1, 512, 32, 16]               0
       Bottleneck-78          [-1, 512, 32, 16]               0
           Conv2d-79         [-1, 1024, 32, 16]         524,288
      BatchNorm2d-80         [-1, 1024, 32, 16]           2,048
             ReLU-81         [-1, 1024, 32, 16]               0
           Conv2d-82          [-1, 1024, 16, 8]         294,912
      BatchNorm2d-83          [-1, 1024, 16, 8]           2,048
             ReLU-84          [-1, 1024, 16, 8]               0
           Conv2d-85          [-1, 1024, 16, 8]       1,048,576
      BatchNorm2d-86          [-1, 1024, 16, 8]           2,048
           Conv2d-87          [-1, 1024, 16, 8]         524,288
      BatchNorm2d-88          [-1, 1024, 16, 8]           2,048
             ReLU-89          [-1, 1024, 16, 8]               0
       Bottleneck-90          [-1, 1024, 16, 8]               0
           Conv2d-91          [-1, 1024, 16, 8]       1,048,576
      BatchNorm2d-92          [-1, 1024, 16, 8]           2,048
             ReLU-93          [-1, 1024, 16, 8]               0
           Conv2d-94          [-1, 1024, 16, 8]         294,912
      BatchNorm2d-95          [-1, 1024, 16, 8]           2,048
             ReLU-96          [-1, 1024, 16, 8]               0
           Conv2d-97          [-1, 1024, 16, 8]       1,048,576
      BatchNorm2d-98          [-1, 1024, 16, 8]           2,048
             ReLU-99          [-1, 1024, 16, 8]               0
      Bottleneck-100          [-1, 1024, 16, 8]               0
          Conv2d-101          [-1, 1024, 16, 8]       1,048,576
     BatchNorm2d-102          [-1, 1024, 16, 8]           2,048
            ReLU-103          [-1, 1024, 16, 8]               0
          Conv2d-104          [-1, 1024, 16, 8]         294,912
     BatchNorm2d-105          [-1, 1024, 16, 8]           2,048
            ReLU-106          [-1, 1024, 16, 8]               0
          Conv2d-107          [-1, 1024, 16, 8]       1,048,576
     BatchNorm2d-108          [-1, 1024, 16, 8]           2,048
            ReLU-109          [-1, 1024, 16, 8]               0
      Bottleneck-110          [-1, 1024, 16, 8]               0
          Conv2d-111          [-1, 1024, 16, 8]       1,048,576
     BatchNorm2d-112          [-1, 1024, 16, 8]           2,048
            ReLU-113          [-1, 1024, 16, 8]               0
          Conv2d-114          [-1, 1024, 16, 8]         294,912
     BatchNorm2d-115          [-1, 1024, 16, 8]           2,048
            ReLU-116          [-1, 1024, 16, 8]               0
          Conv2d-117          [-1, 1024, 16, 8]       1,048,576
     BatchNorm2d-118          [-1, 1024, 16, 8]           2,048
            ReLU-119          [-1, 1024, 16, 8]               0
      Bottleneck-120          [-1, 1024, 16, 8]               0
          Conv2d-121          [-1, 1024, 16, 8]       1,048,576
     BatchNorm2d-122          [-1, 1024, 16, 8]           2,048
            ReLU-123          [-1, 1024, 16, 8]               0
          Conv2d-124          [-1, 1024, 16, 8]         294,912
     BatchNorm2d-125          [-1, 1024, 16, 8]           2,048
            ReLU-126          [-1, 1024, 16, 8]               0
          Conv2d-127          [-1, 1024, 16, 8]       1,048,576
     BatchNorm2d-128          [-1, 1024, 16, 8]           2,048
            ReLU-129          [-1, 1024, 16, 8]               0
      Bottleneck-130          [-1, 1024, 16, 8]               0
          Conv2d-131          [-1, 1024, 16, 8]       1,048,576
     BatchNorm2d-132          [-1, 1024, 16, 8]           2,048
            ReLU-133          [-1, 1024, 16, 8]               0
          Conv2d-134          [-1, 1024, 16, 8]         294,912
     BatchNorm2d-135          [-1, 1024, 16, 8]           2,048
            ReLU-136          [-1, 1024, 16, 8]               0
          Conv2d-137          [-1, 1024, 16, 8]       1,048,576
     BatchNorm2d-138          [-1, 1024, 16, 8]           2,048
            ReLU-139          [-1, 1024, 16, 8]               0
      Bottleneck-140          [-1, 1024, 16, 8]               0
          Conv2d-141          [-1, 1024, 16, 8]       1,048,576
     BatchNorm2d-142          [-1, 1024, 16, 8]           2,048
            ReLU-143          [-1, 1024, 16, 8]               0
          Conv2d-144          [-1, 1024, 16, 8]         294,912
     BatchNorm2d-145          [-1, 1024, 16, 8]           2,048
            ReLU-146          [-1, 1024, 16, 8]               0
          Conv2d-147          [-1, 1024, 16, 8]       1,048,576
     BatchNorm2d-148          [-1, 1024, 16, 8]           2,048
            ReLU-149          [-1, 1024, 16, 8]               0
      Bottleneck-150          [-1, 1024, 16, 8]               0
          Conv2d-151          [-1, 1024, 16, 8]       1,048,576
     BatchNorm2d-152          [-1, 1024, 16, 8]           2,048
            ReLU-153          [-1, 1024, 16, 8]               0
          Conv2d-154          [-1, 1024, 16, 8]         294,912
     BatchNorm2d-155          [-1, 1024, 16, 8]           2,048
            ReLU-156          [-1, 1024, 16, 8]               0
          Conv2d-157          [-1, 1024, 16, 8]       1,048,576
     BatchNorm2d-158          [-1, 1024, 16, 8]           2,048
            ReLU-159          [-1, 1024, 16, 8]               0
      Bottleneck-160          [-1, 1024, 16, 8]               0
          Conv2d-161          [-1, 1024, 16, 8]       1,048,576
     BatchNorm2d-162          [-1, 1024, 16, 8]           2,048
            ReLU-163          [-1, 1024, 16, 8]               0
          Conv2d-164          [-1, 1024, 16, 8]         294,912
     BatchNorm2d-165          [-1, 1024, 16, 8]           2,048
            ReLU-166          [-1, 1024, 16, 8]               0
          Conv2d-167          [-1, 1024, 16, 8]       1,048,576
     BatchNorm2d-168          [-1, 1024, 16, 8]           2,048
            ReLU-169          [-1, 1024, 16, 8]               0
      Bottleneck-170          [-1, 1024, 16, 8]               0
          Conv2d-171          [-1, 1024, 16, 8]       1,048,576
     BatchNorm2d-172          [-1, 1024, 16, 8]           2,048
            ReLU-173          [-1, 1024, 16, 8]               0
          Conv2d-174          [-1, 1024, 16, 8]         294,912
     BatchNorm2d-175          [-1, 1024, 16, 8]           2,048
            ReLU-176          [-1, 1024, 16, 8]               0
          Conv2d-177          [-1, 1024, 16, 8]       1,048,576
     BatchNorm2d-178          [-1, 1024, 16, 8]           2,048
            ReLU-179          [-1, 1024, 16, 8]               0
      Bottleneck-180          [-1, 1024, 16, 8]               0
          Conv2d-181          [-1, 1024, 16, 8]       1,048,576
     BatchNorm2d-182          [-1, 1024, 16, 8]           2,048
            ReLU-183          [-1, 1024, 16, 8]               0
          Conv2d-184          [-1, 1024, 16, 8]         294,912
     BatchNorm2d-185          [-1, 1024, 16, 8]           2,048
            ReLU-186          [-1, 1024, 16, 8]               0
          Conv2d-187          [-1, 1024, 16, 8]       1,048,576
     BatchNorm2d-188          [-1, 1024, 16, 8]           2,048
            ReLU-189          [-1, 1024, 16, 8]               0
      Bottleneck-190          [-1, 1024, 16, 8]               0
          Conv2d-191          [-1, 1024, 16, 8]       1,048,576
     BatchNorm2d-192          [-1, 1024, 16, 8]           2,048
            ReLU-193          [-1, 1024, 16, 8]               0
          Conv2d-194          [-1, 1024, 16, 8]         294,912
     BatchNorm2d-195          [-1, 1024, 16, 8]           2,048
            ReLU-196          [-1, 1024, 16, 8]               0
          Conv2d-197          [-1, 1024, 16, 8]       1,048,576
     BatchNorm2d-198          [-1, 1024, 16, 8]           2,048
            ReLU-199          [-1, 1024, 16, 8]               0
      Bottleneck-200          [-1, 1024, 16, 8]               0
          Conv2d-201          [-1, 1024, 16, 8]       1,048,576
     BatchNorm2d-202          [-1, 1024, 16, 8]           2,048
            ReLU-203          [-1, 1024, 16, 8]               0
          Conv2d-204          [-1, 1024, 16, 8]         294,912
     BatchNorm2d-205          [-1, 1024, 16, 8]           2,048
            ReLU-206          [-1, 1024, 16, 8]               0
          Conv2d-207          [-1, 1024, 16, 8]       1,048,576
     BatchNorm2d-208          [-1, 1024, 16, 8]           2,048
            ReLU-209          [-1, 1024, 16, 8]               0
      Bottleneck-210          [-1, 1024, 16, 8]               0
          Conv2d-211          [-1, 1024, 16, 8]       1,048,576
     BatchNorm2d-212          [-1, 1024, 16, 8]           2,048
            ReLU-213          [-1, 1024, 16, 8]               0
          Conv2d-214          [-1, 1024, 16, 8]         294,912
     BatchNorm2d-215          [-1, 1024, 16, 8]           2,048
            ReLU-216          [-1, 1024, 16, 8]               0
          Conv2d-217          [-1, 1024, 16, 8]       1,048,576
     BatchNorm2d-218          [-1, 1024, 16, 8]           2,048
            ReLU-219          [-1, 1024, 16, 8]               0
      Bottleneck-220          [-1, 1024, 16, 8]               0
          Conv2d-221          [-1, 1024, 16, 8]       1,048,576
     BatchNorm2d-222          [-1, 1024, 16, 8]           2,048
            ReLU-223          [-1, 1024, 16, 8]               0
          Conv2d-224          [-1, 1024, 16, 8]         294,912
     BatchNorm2d-225          [-1, 1024, 16, 8]           2,048
            ReLU-226          [-1, 1024, 16, 8]               0
          Conv2d-227          [-1, 1024, 16, 8]       1,048,576
     BatchNorm2d-228          [-1, 1024, 16, 8]           2,048
            ReLU-229          [-1, 1024, 16, 8]               0
      Bottleneck-230          [-1, 1024, 16, 8]               0
          Conv2d-231          [-1, 1024, 16, 8]       1,048,576
     BatchNorm2d-232          [-1, 1024, 16, 8]           2,048
            ReLU-233          [-1, 1024, 16, 8]               0
          Conv2d-234          [-1, 1024, 16, 8]         294,912
     BatchNorm2d-235          [-1, 1024, 16, 8]           2,048
            ReLU-236          [-1, 1024, 16, 8]               0
          Conv2d-237          [-1, 1024, 16, 8]       1,048,576
     BatchNorm2d-238          [-1, 1024, 16, 8]           2,048
            ReLU-239          [-1, 1024, 16, 8]               0
      Bottleneck-240          [-1, 1024, 16, 8]               0
          Conv2d-241          [-1, 1024, 16, 8]       1,048,576
     BatchNorm2d-242          [-1, 1024, 16, 8]           2,048
            ReLU-243          [-1, 1024, 16, 8]               0
          Conv2d-244          [-1, 1024, 16, 8]         294,912
     BatchNorm2d-245          [-1, 1024, 16, 8]           2,048
            ReLU-246          [-1, 1024, 16, 8]               0
          Conv2d-247          [-1, 1024, 16, 8]       1,048,576
     BatchNorm2d-248          [-1, 1024, 16, 8]           2,048
            ReLU-249          [-1, 1024, 16, 8]               0
      Bottleneck-250          [-1, 1024, 16, 8]               0
          Conv2d-251          [-1, 1024, 16, 8]       1,048,576
     BatchNorm2d-252          [-1, 1024, 16, 8]           2,048
            ReLU-253          [-1, 1024, 16, 8]               0
          Conv2d-254          [-1, 1024, 16, 8]         294,912
     BatchNorm2d-255          [-1, 1024, 16, 8]           2,048
            ReLU-256          [-1, 1024, 16, 8]               0
          Conv2d-257          [-1, 1024, 16, 8]       1,048,576
     BatchNorm2d-258          [-1, 1024, 16, 8]           2,048
            ReLU-259          [-1, 1024, 16, 8]               0
      Bottleneck-260          [-1, 1024, 16, 8]               0
          Conv2d-261          [-1, 1024, 16, 8]       1,048,576
     BatchNorm2d-262          [-1, 1024, 16, 8]           2,048
            ReLU-263          [-1, 1024, 16, 8]               0
          Conv2d-264          [-1, 1024, 16, 8]         294,912
     BatchNorm2d-265          [-1, 1024, 16, 8]           2,048
            ReLU-266          [-1, 1024, 16, 8]               0
          Conv2d-267          [-1, 1024, 16, 8]       1,048,576
     BatchNorm2d-268          [-1, 1024, 16, 8]           2,048
            ReLU-269          [-1, 1024, 16, 8]               0
      Bottleneck-270          [-1, 1024, 16, 8]               0
          Conv2d-271          [-1, 1024, 16, 8]       1,048,576
     BatchNorm2d-272          [-1, 1024, 16, 8]           2,048
            ReLU-273          [-1, 1024, 16, 8]               0
          Conv2d-274          [-1, 1024, 16, 8]         294,912
     BatchNorm2d-275          [-1, 1024, 16, 8]           2,048
            ReLU-276          [-1, 1024, 16, 8]               0
          Conv2d-277          [-1, 1024, 16, 8]       1,048,576
     BatchNorm2d-278          [-1, 1024, 16, 8]           2,048
            ReLU-279          [-1, 1024, 16, 8]               0
      Bottleneck-280          [-1, 1024, 16, 8]               0
          Conv2d-281          [-1, 1024, 16, 8]       1,048,576
     BatchNorm2d-282          [-1, 1024, 16, 8]           2,048
            ReLU-283          [-1, 1024, 16, 8]               0
          Conv2d-284          [-1, 1024, 16, 8]         294,912
     BatchNorm2d-285          [-1, 1024, 16, 8]           2,048
            ReLU-286          [-1, 1024, 16, 8]               0
          Conv2d-287          [-1, 1024, 16, 8]       1,048,576
     BatchNorm2d-288          [-1, 1024, 16, 8]           2,048
            ReLU-289          [-1, 1024, 16, 8]               0
      Bottleneck-290          [-1, 1024, 16, 8]               0
          Conv2d-291          [-1, 1024, 16, 8]       1,048,576
     BatchNorm2d-292          [-1, 1024, 16, 8]           2,048
            ReLU-293          [-1, 1024, 16, 8]               0
          Conv2d-294          [-1, 1024, 16, 8]         294,912
     BatchNorm2d-295          [-1, 1024, 16, 8]           2,048
            ReLU-296          [-1, 1024, 16, 8]               0
          Conv2d-297          [-1, 1024, 16, 8]       1,048,576
     BatchNorm2d-298          [-1, 1024, 16, 8]           2,048
            ReLU-299          [-1, 1024, 16, 8]               0
      Bottleneck-300          [-1, 1024, 16, 8]               0
          Conv2d-301          [-1, 1024, 16, 8]       1,048,576
     BatchNorm2d-302          [-1, 1024, 16, 8]           2,048
            ReLU-303          [-1, 1024, 16, 8]               0
          Conv2d-304          [-1, 1024, 16, 8]         294,912
     BatchNorm2d-305          [-1, 1024, 16, 8]           2,048
            ReLU-306          [-1, 1024, 16, 8]               0
          Conv2d-307          [-1, 1024, 16, 8]       1,048,576
     BatchNorm2d-308          [-1, 1024, 16, 8]           2,048
            ReLU-309          [-1, 1024, 16, 8]               0
      Bottleneck-310          [-1, 1024, 16, 8]               0
          Conv2d-311          [-1, 2048, 16, 8]       2,097,152
     BatchNorm2d-312          [-1, 2048, 16, 8]           4,096
            ReLU-313          [-1, 2048, 16, 8]               0
          Conv2d-314          [-1, 2048, 16, 8]       1,179,648
     BatchNorm2d-315          [-1, 2048, 16, 8]           4,096
            ReLU-316          [-1, 2048, 16, 8]               0
          Conv2d-317          [-1, 2048, 16, 8]       4,194,304
     BatchNorm2d-318          [-1, 2048, 16, 8]           4,096
          Conv2d-319          [-1, 2048, 16, 8]       2,097,152
     BatchNorm2d-320          [-1, 2048, 16, 8]           4,096
            ReLU-321          [-1, 2048, 16, 8]               0
      Bottleneck-322          [-1, 2048, 16, 8]               0
          Conv2d-323          [-1, 2048, 16, 8]       4,194,304
     BatchNorm2d-324          [-1, 2048, 16, 8]           4,096
            ReLU-325          [-1, 2048, 16, 8]               0
          Conv2d-326          [-1, 2048, 16, 8]       1,179,648
     BatchNorm2d-327          [-1, 2048, 16, 8]           4,096
            ReLU-328          [-1, 2048, 16, 8]               0
          Conv2d-329          [-1, 2048, 16, 8]       4,194,304
     BatchNorm2d-330          [-1, 2048, 16, 8]           4,096
            ReLU-331          [-1, 2048, 16, 8]               0
      Bottleneck-332          [-1, 2048, 16, 8]               0
          Conv2d-333          [-1, 2048, 16, 8]       4,194,304
     BatchNorm2d-334          [-1, 2048, 16, 8]           4,096
            ReLU-335          [-1, 2048, 16, 8]               0
          Conv2d-336          [-1, 2048, 16, 8]       1,179,648
     BatchNorm2d-337          [-1, 2048, 16, 8]           4,096
            ReLU-338          [-1, 2048, 16, 8]               0
          Conv2d-339          [-1, 2048, 16, 8]       4,194,304
     BatchNorm2d-340          [-1, 2048, 16, 8]           4,096
            ReLU-341          [-1, 2048, 16, 8]               0
      Bottleneck-342          [-1, 2048, 16, 8]               0
================================================================
Total params: 86,742,336
Trainable params: 86,742,336
Non-trainable params: 0
----------------------------------------------------------------
Input size (MB): 0.38
Forward/backward pass size (MB): 548.00
Params size (MB): 330.90
Estimated Total Size (MB): 879.27
----------------------------------------------------------------
**************************************************
wide_resnet50_2
----------------------------------------------------------------
        Layer (type)               Output Shape         Param #
================================================================
            Conv2d-1          [-1, 64, 128, 64]           9,408
       BatchNorm2d-2          [-1, 64, 128, 64]             128
              ReLU-3          [-1, 64, 128, 64]               0
         MaxPool2d-4           [-1, 64, 64, 32]               0
            Conv2d-5          [-1, 128, 64, 32]           8,192
       BatchNorm2d-6          [-1, 128, 64, 32]             256
              ReLU-7          [-1, 128, 64, 32]               0
            Conv2d-8          [-1, 128, 64, 32]         147,456
       BatchNorm2d-9          [-1, 128, 64, 32]             256
             ReLU-10          [-1, 128, 64, 32]               0
           Conv2d-11          [-1, 256, 64, 32]          32,768
      BatchNorm2d-12          [-1, 256, 64, 32]             512
           Conv2d-13          [-1, 256, 64, 32]          16,384
      BatchNorm2d-14          [-1, 256, 64, 32]             512
             ReLU-15          [-1, 256, 64, 32]               0
       Bottleneck-16          [-1, 256, 64, 32]               0
           Conv2d-17          [-1, 128, 64, 32]          32,768
      BatchNorm2d-18          [-1, 128, 64, 32]             256
             ReLU-19          [-1, 128, 64, 32]               0
           Conv2d-20          [-1, 128, 64, 32]         147,456
      BatchNorm2d-21          [-1, 128, 64, 32]             256
             ReLU-22          [-1, 128, 64, 32]               0
           Conv2d-23          [-1, 256, 64, 32]          32,768
      BatchNorm2d-24          [-1, 256, 64, 32]             512
             ReLU-25          [-1, 256, 64, 32]               0
       Bottleneck-26          [-1, 256, 64, 32]               0
           Conv2d-27          [-1, 128, 64, 32]          32,768
      BatchNorm2d-28          [-1, 128, 64, 32]             256
             ReLU-29          [-1, 128, 64, 32]               0
           Conv2d-30          [-1, 128, 64, 32]         147,456
      BatchNorm2d-31          [-1, 128, 64, 32]             256
             ReLU-32          [-1, 128, 64, 32]               0
           Conv2d-33          [-1, 256, 64, 32]          32,768
      BatchNorm2d-34          [-1, 256, 64, 32]             512
             ReLU-35          [-1, 256, 64, 32]               0
       Bottleneck-36          [-1, 256, 64, 32]               0
           Conv2d-37          [-1, 256, 64, 32]          65,536
      BatchNorm2d-38          [-1, 256, 64, 32]             512
             ReLU-39          [-1, 256, 64, 32]               0
           Conv2d-40          [-1, 256, 32, 16]         589,824
      BatchNorm2d-41          [-1, 256, 32, 16]             512
             ReLU-42          [-1, 256, 32, 16]               0
           Conv2d-43          [-1, 512, 32, 16]         131,072
      BatchNorm2d-44          [-1, 512, 32, 16]           1,024
           Conv2d-45          [-1, 512, 32, 16]         131,072
      BatchNorm2d-46          [-1, 512, 32, 16]           1,024
             ReLU-47          [-1, 512, 32, 16]               0
       Bottleneck-48          [-1, 512, 32, 16]               0
           Conv2d-49          [-1, 256, 32, 16]         131,072
      BatchNorm2d-50          [-1, 256, 32, 16]             512
             ReLU-51          [-1, 256, 32, 16]               0
           Conv2d-52          [-1, 256, 32, 16]         589,824
      BatchNorm2d-53          [-1, 256, 32, 16]             512
             ReLU-54          [-1, 256, 32, 16]               0
           Conv2d-55          [-1, 512, 32, 16]         131,072
      BatchNorm2d-56          [-1, 512, 32, 16]           1,024
             ReLU-57          [-1, 512, 32, 16]               0
       Bottleneck-58          [-1, 512, 32, 16]               0
           Conv2d-59          [-1, 256, 32, 16]         131,072
      BatchNorm2d-60          [-1, 256, 32, 16]             512
             ReLU-61          [-1, 256, 32, 16]               0
           Conv2d-62          [-1, 256, 32, 16]         589,824
      BatchNorm2d-63          [-1, 256, 32, 16]             512
             ReLU-64          [-1, 256, 32, 16]               0
           Conv2d-65          [-1, 512, 32, 16]         131,072
      BatchNorm2d-66          [-1, 512, 32, 16]           1,024
             ReLU-67          [-1, 512, 32, 16]               0
       Bottleneck-68          [-1, 512, 32, 16]               0
           Conv2d-69          [-1, 256, 32, 16]         131,072
      BatchNorm2d-70          [-1, 256, 32, 16]             512
             ReLU-71          [-1, 256, 32, 16]               0
           Conv2d-72          [-1, 256, 32, 16]         589,824
      BatchNorm2d-73          [-1, 256, 32, 16]             512
             ReLU-74          [-1, 256, 32, 16]               0
           Conv2d-75          [-1, 512, 32, 16]         131,072
      BatchNorm2d-76          [-1, 512, 32, 16]           1,024
             ReLU-77          [-1, 512, 32, 16]               0
       Bottleneck-78          [-1, 512, 32, 16]               0
           Conv2d-79          [-1, 512, 32, 16]         262,144
      BatchNorm2d-80          [-1, 512, 32, 16]           1,024
             ReLU-81          [-1, 512, 32, 16]               0
           Conv2d-82           [-1, 512, 16, 8]       2,359,296
      BatchNorm2d-83           [-1, 512, 16, 8]           1,024
             ReLU-84           [-1, 512, 16, 8]               0
           Conv2d-85          [-1, 1024, 16, 8]         524,288
      BatchNorm2d-86          [-1, 1024, 16, 8]           2,048
           Conv2d-87          [-1, 1024, 16, 8]         524,288
      BatchNorm2d-88          [-1, 1024, 16, 8]           2,048
             ReLU-89          [-1, 1024, 16, 8]               0
       Bottleneck-90          [-1, 1024, 16, 8]               0
           Conv2d-91           [-1, 512, 16, 8]         524,288
      BatchNorm2d-92           [-1, 512, 16, 8]           1,024
             ReLU-93           [-1, 512, 16, 8]               0
           Conv2d-94           [-1, 512, 16, 8]       2,359,296
      BatchNorm2d-95           [-1, 512, 16, 8]           1,024
             ReLU-96           [-1, 512, 16, 8]               0
           Conv2d-97          [-1, 1024, 16, 8]         524,288
      BatchNorm2d-98          [-1, 1024, 16, 8]           2,048
             ReLU-99          [-1, 1024, 16, 8]               0
      Bottleneck-100          [-1, 1024, 16, 8]               0
          Conv2d-101           [-1, 512, 16, 8]         524,288
     BatchNorm2d-102           [-1, 512, 16, 8]           1,024
            ReLU-103           [-1, 512, 16, 8]               0
          Conv2d-104           [-1, 512, 16, 8]       2,359,296
     BatchNorm2d-105           [-1, 512, 16, 8]           1,024
            ReLU-106           [-1, 512, 16, 8]               0
          Conv2d-107          [-1, 1024, 16, 8]         524,288
     BatchNorm2d-108          [-1, 1024, 16, 8]           2,048
            ReLU-109          [-1, 1024, 16, 8]               0
      Bottleneck-110          [-1, 1024, 16, 8]               0
          Conv2d-111           [-1, 512, 16, 8]         524,288
     BatchNorm2d-112           [-1, 512, 16, 8]           1,024
            ReLU-113           [-1, 512, 16, 8]               0
          Conv2d-114           [-1, 512, 16, 8]       2,359,296
     BatchNorm2d-115           [-1, 512, 16, 8]           1,024
            ReLU-116           [-1, 512, 16, 8]               0
          Conv2d-117          [-1, 1024, 16, 8]         524,288
     BatchNorm2d-118          [-1, 1024, 16, 8]           2,048
            ReLU-119          [-1, 1024, 16, 8]               0
      Bottleneck-120          [-1, 1024, 16, 8]               0
          Conv2d-121           [-1, 512, 16, 8]         524,288
     BatchNorm2d-122           [-1, 512, 16, 8]           1,024
            ReLU-123           [-1, 512, 16, 8]               0
          Conv2d-124           [-1, 512, 16, 8]       2,359,296
     BatchNorm2d-125           [-1, 512, 16, 8]           1,024
            ReLU-126           [-1, 512, 16, 8]               0
          Conv2d-127          [-1, 1024, 16, 8]         524,288
     BatchNorm2d-128          [-1, 1024, 16, 8]           2,048
            ReLU-129          [-1, 1024, 16, 8]               0
      Bottleneck-130          [-1, 1024, 16, 8]               0
          Conv2d-131           [-1, 512, 16, 8]         524,288
     BatchNorm2d-132           [-1, 512, 16, 8]           1,024
            ReLU-133           [-1, 512, 16, 8]               0
          Conv2d-134           [-1, 512, 16, 8]       2,359,296
     BatchNorm2d-135           [-1, 512, 16, 8]           1,024
            ReLU-136           [-1, 512, 16, 8]               0
          Conv2d-137          [-1, 1024, 16, 8]         524,288
     BatchNorm2d-138          [-1, 1024, 16, 8]           2,048
            ReLU-139          [-1, 1024, 16, 8]               0
      Bottleneck-140          [-1, 1024, 16, 8]               0
          Conv2d-141          [-1, 1024, 16, 8]       1,048,576
     BatchNorm2d-142          [-1, 1024, 16, 8]           2,048
            ReLU-143          [-1, 1024, 16, 8]               0
          Conv2d-144          [-1, 1024, 16, 8]       9,437,184
     BatchNorm2d-145          [-1, 1024, 16, 8]           2,048
            ReLU-146          [-1, 1024, 16, 8]               0
          Conv2d-147          [-1, 2048, 16, 8]       2,097,152
     BatchNorm2d-148          [-1, 2048, 16, 8]           4,096
          Conv2d-149          [-1, 2048, 16, 8]       2,097,152
     BatchNorm2d-150          [-1, 2048, 16, 8]           4,096
            ReLU-151          [-1, 2048, 16, 8]               0
      Bottleneck-152          [-1, 2048, 16, 8]               0
          Conv2d-153          [-1, 1024, 16, 8]       2,097,152
     BatchNorm2d-154          [-1, 1024, 16, 8]           2,048
            ReLU-155          [-1, 1024, 16, 8]               0
          Conv2d-156          [-1, 1024, 16, 8]       9,437,184
     BatchNorm2d-157          [-1, 1024, 16, 8]           2,048
            ReLU-158          [-1, 1024, 16, 8]               0
          Conv2d-159          [-1, 2048, 16, 8]       2,097,152
     BatchNorm2d-160          [-1, 2048, 16, 8]           4,096
            ReLU-161          [-1, 2048, 16, 8]               0
      Bottleneck-162          [-1, 2048, 16, 8]               0
          Conv2d-163          [-1, 1024, 16, 8]       2,097,152
     BatchNorm2d-164          [-1, 1024, 16, 8]           2,048
            ReLU-165          [-1, 1024, 16, 8]               0
          Conv2d-166          [-1, 1024, 16, 8]       9,437,184
     BatchNorm2d-167          [-1, 1024, 16, 8]           2,048
            ReLU-168          [-1, 1024, 16, 8]               0
          Conv2d-169          [-1, 2048, 16, 8]       2,097,152
     BatchNorm2d-170          [-1, 2048, 16, 8]           4,096
            ReLU-171          [-1, 2048, 16, 8]               0
      Bottleneck-172          [-1, 2048, 16, 8]               0
================================================================
Total params: 66,834,240
Trainable params: 66,834,240
Non-trainable params: 0
----------------------------------------------------------------
Input size (MB): 0.38
Forward/backward pass size (MB): 268.50
Params size (MB): 254.95
Estimated Total Size (MB): 523.83
----------------------------------------------------------------
**************************************************
wide_resnet101_2
----------------------------------------------------------------
        Layer (type)               Output Shape         Param #
================================================================
            Conv2d-1          [-1, 64, 128, 64]           9,408
       BatchNorm2d-2          [-1, 64, 128, 64]             128
              ReLU-3          [-1, 64, 128, 64]               0
         MaxPool2d-4           [-1, 64, 64, 32]               0
            Conv2d-5          [-1, 128, 64, 32]           8,192
       BatchNorm2d-6          [-1, 128, 64, 32]             256
              ReLU-7          [-1, 128, 64, 32]               0
            Conv2d-8          [-1, 128, 64, 32]         147,456
       BatchNorm2d-9          [-1, 128, 64, 32]             256
             ReLU-10          [-1, 128, 64, 32]               0
           Conv2d-11          [-1, 256, 64, 32]          32,768
      BatchNorm2d-12          [-1, 256, 64, 32]             512
           Conv2d-13          [-1, 256, 64, 32]          16,384
      BatchNorm2d-14          [-1, 256, 64, 32]             512
             ReLU-15          [-1, 256, 64, 32]               0
       Bottleneck-16          [-1, 256, 64, 32]               0
           Conv2d-17          [-1, 128, 64, 32]          32,768
      BatchNorm2d-18          [-1, 128, 64, 32]             256
             ReLU-19          [-1, 128, 64, 32]               0
           Conv2d-20          [-1, 128, 64, 32]         147,456
      BatchNorm2d-21          [-1, 128, 64, 32]             256
             ReLU-22          [-1, 128, 64, 32]               0
           Conv2d-23          [-1, 256, 64, 32]          32,768
      BatchNorm2d-24          [-1, 256, 64, 32]             512
             ReLU-25          [-1, 256, 64, 32]               0
       Bottleneck-26          [-1, 256, 64, 32]               0
           Conv2d-27          [-1, 128, 64, 32]          32,768
      BatchNorm2d-28          [-1, 128, 64, 32]             256
             ReLU-29          [-1, 128, 64, 32]               0
           Conv2d-30          [-1, 128, 64, 32]         147,456
      BatchNorm2d-31          [-1, 128, 64, 32]             256
             ReLU-32          [-1, 128, 64, 32]               0
           Conv2d-33          [-1, 256, 64, 32]          32,768
      BatchNorm2d-34          [-1, 256, 64, 32]             512
             ReLU-35          [-1, 256, 64, 32]               0
       Bottleneck-36          [-1, 256, 64, 32]               0
           Conv2d-37          [-1, 256, 64, 32]          65,536
      BatchNorm2d-38          [-1, 256, 64, 32]             512
             ReLU-39          [-1, 256, 64, 32]               0
           Conv2d-40          [-1, 256, 32, 16]         589,824
      BatchNorm2d-41          [-1, 256, 32, 16]             512
             ReLU-42          [-1, 256, 32, 16]               0
           Conv2d-43          [-1, 512, 32, 16]         131,072
      BatchNorm2d-44          [-1, 512, 32, 16]           1,024
           Conv2d-45          [-1, 512, 32, 16]         131,072
      BatchNorm2d-46          [-1, 512, 32, 16]           1,024
             ReLU-47          [-1, 512, 32, 16]               0
       Bottleneck-48          [-1, 512, 32, 16]               0
           Conv2d-49          [-1, 256, 32, 16]         131,072
      BatchNorm2d-50          [-1, 256, 32, 16]             512
             ReLU-51          [-1, 256, 32, 16]               0
           Conv2d-52          [-1, 256, 32, 16]         589,824
      BatchNorm2d-53          [-1, 256, 32, 16]             512
             ReLU-54          [-1, 256, 32, 16]               0
           Conv2d-55          [-1, 512, 32, 16]         131,072
      BatchNorm2d-56          [-1, 512, 32, 16]           1,024
             ReLU-57          [-1, 512, 32, 16]               0
       Bottleneck-58          [-1, 512, 32, 16]               0
           Conv2d-59          [-1, 256, 32, 16]         131,072
      BatchNorm2d-60          [-1, 256, 32, 16]             512
             ReLU-61          [-1, 256, 32, 16]               0
           Conv2d-62          [-1, 256, 32, 16]         589,824
      BatchNorm2d-63          [-1, 256, 32, 16]             512
             ReLU-64          [-1, 256, 32, 16]               0
           Conv2d-65          [-1, 512, 32, 16]         131,072
      BatchNorm2d-66          [-1, 512, 32, 16]           1,024
             ReLU-67          [-1, 512, 32, 16]               0
       Bottleneck-68          [-1, 512, 32, 16]               0
           Conv2d-69          [-1, 256, 32, 16]         131,072
      BatchNorm2d-70          [-1, 256, 32, 16]             512
             ReLU-71          [-1, 256, 32, 16]               0
           Conv2d-72          [-1, 256, 32, 16]         589,824
      BatchNorm2d-73          [-1, 256, 32, 16]             512
             ReLU-74          [-1, 256, 32, 16]               0
           Conv2d-75          [-1, 512, 32, 16]         131,072
      BatchNorm2d-76          [-1, 512, 32, 16]           1,024
             ReLU-77          [-1, 512, 32, 16]               0
       Bottleneck-78          [-1, 512, 32, 16]               0
           Conv2d-79          [-1, 512, 32, 16]         262,144
      BatchNorm2d-80          [-1, 512, 32, 16]           1,024
             ReLU-81          [-1, 512, 32, 16]               0
           Conv2d-82           [-1, 512, 16, 8]       2,359,296
      BatchNorm2d-83           [-1, 512, 16, 8]           1,024
             ReLU-84           [-1, 512, 16, 8]               0
           Conv2d-85          [-1, 1024, 16, 8]         524,288
      BatchNorm2d-86          [-1, 1024, 16, 8]           2,048
           Conv2d-87          [-1, 1024, 16, 8]         524,288
      BatchNorm2d-88          [-1, 1024, 16, 8]           2,048
             ReLU-89          [-1, 1024, 16, 8]               0
       Bottleneck-90          [-1, 1024, 16, 8]               0
           Conv2d-91           [-1, 512, 16, 8]         524,288
      BatchNorm2d-92           [-1, 512, 16, 8]           1,024
             ReLU-93           [-1, 512, 16, 8]               0
           Conv2d-94           [-1, 512, 16, 8]       2,359,296
      BatchNorm2d-95           [-1, 512, 16, 8]           1,024
             ReLU-96           [-1, 512, 16, 8]               0
           Conv2d-97          [-1, 1024, 16, 8]         524,288
      BatchNorm2d-98          [-1, 1024, 16, 8]           2,048
             ReLU-99          [-1, 1024, 16, 8]               0
      Bottleneck-100          [-1, 1024, 16, 8]               0
          Conv2d-101           [-1, 512, 16, 8]         524,288
     BatchNorm2d-102           [-1, 512, 16, 8]           1,024
            ReLU-103           [-1, 512, 16, 8]               0
          Conv2d-104           [-1, 512, 16, 8]       2,359,296
     BatchNorm2d-105           [-1, 512, 16, 8]           1,024
            ReLU-106           [-1, 512, 16, 8]               0
          Conv2d-107          [-1, 1024, 16, 8]         524,288
     BatchNorm2d-108          [-1, 1024, 16, 8]           2,048
            ReLU-109          [-1, 1024, 16, 8]               0
      Bottleneck-110          [-1, 1024, 16, 8]               0
          Conv2d-111           [-1, 512, 16, 8]         524,288
     BatchNorm2d-112           [-1, 512, 16, 8]           1,024
            ReLU-113           [-1, 512, 16, 8]               0
          Conv2d-114           [-1, 512, 16, 8]       2,359,296
     BatchNorm2d-115           [-1, 512, 16, 8]           1,024
            ReLU-116           [-1, 512, 16, 8]               0
          Conv2d-117          [-1, 1024, 16, 8]         524,288
     BatchNorm2d-118          [-1, 1024, 16, 8]           2,048
            ReLU-119          [-1, 1024, 16, 8]               0
      Bottleneck-120          [-1, 1024, 16, 8]               0
          Conv2d-121           [-1, 512, 16, 8]         524,288
     BatchNorm2d-122           [-1, 512, 16, 8]           1,024
            ReLU-123           [-1, 512, 16, 8]               0
          Conv2d-124           [-1, 512, 16, 8]       2,359,296
     BatchNorm2d-125           [-1, 512, 16, 8]           1,024
            ReLU-126           [-1, 512, 16, 8]               0
          Conv2d-127          [-1, 1024, 16, 8]         524,288
     BatchNorm2d-128          [-1, 1024, 16, 8]           2,048
            ReLU-129          [-1, 1024, 16, 8]               0
      Bottleneck-130          [-1, 1024, 16, 8]               0
          Conv2d-131           [-1, 512, 16, 8]         524,288
     BatchNorm2d-132           [-1, 512, 16, 8]           1,024
            ReLU-133           [-1, 512, 16, 8]               0
          Conv2d-134           [-1, 512, 16, 8]       2,359,296
     BatchNorm2d-135           [-1, 512, 16, 8]           1,024
            ReLU-136           [-1, 512, 16, 8]               0
          Conv2d-137          [-1, 1024, 16, 8]         524,288
     BatchNorm2d-138          [-1, 1024, 16, 8]           2,048
            ReLU-139          [-1, 1024, 16, 8]               0
      Bottleneck-140          [-1, 1024, 16, 8]               0
          Conv2d-141           [-1, 512, 16, 8]         524,288
     BatchNorm2d-142           [-1, 512, 16, 8]           1,024
            ReLU-143           [-1, 512, 16, 8]               0
          Conv2d-144           [-1, 512, 16, 8]       2,359,296
     BatchNorm2d-145           [-1, 512, 16, 8]           1,024
            ReLU-146           [-1, 512, 16, 8]               0
          Conv2d-147          [-1, 1024, 16, 8]         524,288
     BatchNorm2d-148          [-1, 1024, 16, 8]           2,048
            ReLU-149          [-1, 1024, 16, 8]               0
      Bottleneck-150          [-1, 1024, 16, 8]               0
          Conv2d-151           [-1, 512, 16, 8]         524,288
     BatchNorm2d-152           [-1, 512, 16, 8]           1,024
            ReLU-153           [-1, 512, 16, 8]               0
          Conv2d-154           [-1, 512, 16, 8]       2,359,296
     BatchNorm2d-155           [-1, 512, 16, 8]           1,024
            ReLU-156           [-1, 512, 16, 8]               0
          Conv2d-157          [-1, 1024, 16, 8]         524,288
     BatchNorm2d-158          [-1, 1024, 16, 8]           2,048
            ReLU-159          [-1, 1024, 16, 8]               0
      Bottleneck-160          [-1, 1024, 16, 8]               0
          Conv2d-161           [-1, 512, 16, 8]         524,288
     BatchNorm2d-162           [-1, 512, 16, 8]           1,024
            ReLU-163           [-1, 512, 16, 8]               0
          Conv2d-164           [-1, 512, 16, 8]       2,359,296
     BatchNorm2d-165           [-1, 512, 16, 8]           1,024
            ReLU-166           [-1, 512, 16, 8]               0
          Conv2d-167          [-1, 1024, 16, 8]         524,288
     BatchNorm2d-168          [-1, 1024, 16, 8]           2,048
            ReLU-169          [-1, 1024, 16, 8]               0
      Bottleneck-170          [-1, 1024, 16, 8]               0
          Conv2d-171           [-1, 512, 16, 8]         524,288
     BatchNorm2d-172           [-1, 512, 16, 8]           1,024
            ReLU-173           [-1, 512, 16, 8]               0
          Conv2d-174           [-1, 512, 16, 8]       2,359,296
     BatchNorm2d-175           [-1, 512, 16, 8]           1,024
            ReLU-176           [-1, 512, 16, 8]               0
          Conv2d-177          [-1, 1024, 16, 8]         524,288
     BatchNorm2d-178          [-1, 1024, 16, 8]           2,048
            ReLU-179          [-1, 1024, 16, 8]               0
      Bottleneck-180          [-1, 1024, 16, 8]               0
          Conv2d-181           [-1, 512, 16, 8]         524,288
     BatchNorm2d-182           [-1, 512, 16, 8]           1,024
            ReLU-183           [-1, 512, 16, 8]               0
          Conv2d-184           [-1, 512, 16, 8]       2,359,296
     BatchNorm2d-185           [-1, 512, 16, 8]           1,024
            ReLU-186           [-1, 512, 16, 8]               0
          Conv2d-187          [-1, 1024, 16, 8]         524,288
     BatchNorm2d-188          [-1, 1024, 16, 8]           2,048
            ReLU-189          [-1, 1024, 16, 8]               0
      Bottleneck-190          [-1, 1024, 16, 8]               0
          Conv2d-191           [-1, 512, 16, 8]         524,288
     BatchNorm2d-192           [-1, 512, 16, 8]           1,024
            ReLU-193           [-1, 512, 16, 8]               0
          Conv2d-194           [-1, 512, 16, 8]       2,359,296
     BatchNorm2d-195           [-1, 512, 16, 8]           1,024
            ReLU-196           [-1, 512, 16, 8]               0
          Conv2d-197          [-1, 1024, 16, 8]         524,288
     BatchNorm2d-198          [-1, 1024, 16, 8]           2,048
            ReLU-199          [-1, 1024, 16, 8]               0
      Bottleneck-200          [-1, 1024, 16, 8]               0
          Conv2d-201           [-1, 512, 16, 8]         524,288
     BatchNorm2d-202           [-1, 512, 16, 8]           1,024
            ReLU-203           [-1, 512, 16, 8]               0
          Conv2d-204           [-1, 512, 16, 8]       2,359,296
     BatchNorm2d-205           [-1, 512, 16, 8]           1,024
            ReLU-206           [-1, 512, 16, 8]               0
          Conv2d-207          [-1, 1024, 16, 8]         524,288
     BatchNorm2d-208          [-1, 1024, 16, 8]           2,048
            ReLU-209          [-1, 1024, 16, 8]               0
      Bottleneck-210          [-1, 1024, 16, 8]               0
          Conv2d-211           [-1, 512, 16, 8]         524,288
     BatchNorm2d-212           [-1, 512, 16, 8]           1,024
            ReLU-213           [-1, 512, 16, 8]               0
          Conv2d-214           [-1, 512, 16, 8]       2,359,296
     BatchNorm2d-215           [-1, 512, 16, 8]           1,024
            ReLU-216           [-1, 512, 16, 8]               0
          Conv2d-217          [-1, 1024, 16, 8]         524,288
     BatchNorm2d-218          [-1, 1024, 16, 8]           2,048
            ReLU-219          [-1, 1024, 16, 8]               0
      Bottleneck-220          [-1, 1024, 16, 8]               0
          Conv2d-221           [-1, 512, 16, 8]         524,288
     BatchNorm2d-222           [-1, 512, 16, 8]           1,024
            ReLU-223           [-1, 512, 16, 8]               0
          Conv2d-224           [-1, 512, 16, 8]       2,359,296
     BatchNorm2d-225           [-1, 512, 16, 8]           1,024
            ReLU-226           [-1, 512, 16, 8]               0
          Conv2d-227          [-1, 1024, 16, 8]         524,288
     BatchNorm2d-228          [-1, 1024, 16, 8]           2,048
            ReLU-229          [-1, 1024, 16, 8]               0
      Bottleneck-230          [-1, 1024, 16, 8]               0
          Conv2d-231           [-1, 512, 16, 8]         524,288
     BatchNorm2d-232           [-1, 512, 16, 8]           1,024
            ReLU-233           [-1, 512, 16, 8]               0
          Conv2d-234           [-1, 512, 16, 8]       2,359,296
     BatchNorm2d-235           [-1, 512, 16, 8]           1,024
            ReLU-236           [-1, 512, 16, 8]               0
          Conv2d-237          [-1, 1024, 16, 8]         524,288
     BatchNorm2d-238          [-1, 1024, 16, 8]           2,048
            ReLU-239          [-1, 1024, 16, 8]               0
      Bottleneck-240          [-1, 1024, 16, 8]               0
          Conv2d-241           [-1, 512, 16, 8]         524,288
     BatchNorm2d-242           [-1, 512, 16, 8]           1,024
            ReLU-243           [-1, 512, 16, 8]               0
          Conv2d-244           [-1, 512, 16, 8]       2,359,296
     BatchNorm2d-245           [-1, 512, 16, 8]           1,024
            ReLU-246           [-1, 512, 16, 8]               0
          Conv2d-247          [-1, 1024, 16, 8]         524,288
     BatchNorm2d-248          [-1, 1024, 16, 8]           2,048
            ReLU-249          [-1, 1024, 16, 8]               0
      Bottleneck-250          [-1, 1024, 16, 8]               0
          Conv2d-251           [-1, 512, 16, 8]         524,288
     BatchNorm2d-252           [-1, 512, 16, 8]           1,024
            ReLU-253           [-1, 512, 16, 8]               0
          Conv2d-254           [-1, 512, 16, 8]       2,359,296
     BatchNorm2d-255           [-1, 512, 16, 8]           1,024
            ReLU-256           [-1, 512, 16, 8]               0
          Conv2d-257          [-1, 1024, 16, 8]         524,288
     BatchNorm2d-258          [-1, 1024, 16, 8]           2,048
            ReLU-259          [-1, 1024, 16, 8]               0
      Bottleneck-260          [-1, 1024, 16, 8]               0
          Conv2d-261           [-1, 512, 16, 8]         524,288
     BatchNorm2d-262           [-1, 512, 16, 8]           1,024
            ReLU-263           [-1, 512, 16, 8]               0
          Conv2d-264           [-1, 512, 16, 8]       2,359,296
     BatchNorm2d-265           [-1, 512, 16, 8]           1,024
            ReLU-266           [-1, 512, 16, 8]               0
          Conv2d-267          [-1, 1024, 16, 8]         524,288
     BatchNorm2d-268          [-1, 1024, 16, 8]           2,048
            ReLU-269          [-1, 1024, 16, 8]               0
      Bottleneck-270          [-1, 1024, 16, 8]               0
          Conv2d-271           [-1, 512, 16, 8]         524,288
     BatchNorm2d-272           [-1, 512, 16, 8]           1,024
            ReLU-273           [-1, 512, 16, 8]               0
          Conv2d-274           [-1, 512, 16, 8]       2,359,296
     BatchNorm2d-275           [-1, 512, 16, 8]           1,024
            ReLU-276           [-1, 512, 16, 8]               0
          Conv2d-277          [-1, 1024, 16, 8]         524,288
     BatchNorm2d-278          [-1, 1024, 16, 8]           2,048
            ReLU-279          [-1, 1024, 16, 8]               0
      Bottleneck-280          [-1, 1024, 16, 8]               0
          Conv2d-281           [-1, 512, 16, 8]         524,288
     BatchNorm2d-282           [-1, 512, 16, 8]           1,024
            ReLU-283           [-1, 512, 16, 8]               0
          Conv2d-284           [-1, 512, 16, 8]       2,359,296
     BatchNorm2d-285           [-1, 512, 16, 8]           1,024
            ReLU-286           [-1, 512, 16, 8]               0
          Conv2d-287          [-1, 1024, 16, 8]         524,288
     BatchNorm2d-288          [-1, 1024, 16, 8]           2,048
            ReLU-289          [-1, 1024, 16, 8]               0
      Bottleneck-290          [-1, 1024, 16, 8]               0
          Conv2d-291           [-1, 512, 16, 8]         524,288
     BatchNorm2d-292           [-1, 512, 16, 8]           1,024
            ReLU-293           [-1, 512, 16, 8]               0
          Conv2d-294           [-1, 512, 16, 8]       2,359,296
     BatchNorm2d-295           [-1, 512, 16, 8]           1,024
            ReLU-296           [-1, 512, 16, 8]               0
          Conv2d-297          [-1, 1024, 16, 8]         524,288
     BatchNorm2d-298          [-1, 1024, 16, 8]           2,048
            ReLU-299          [-1, 1024, 16, 8]               0
      Bottleneck-300          [-1, 1024, 16, 8]               0
          Conv2d-301           [-1, 512, 16, 8]         524,288
     BatchNorm2d-302           [-1, 512, 16, 8]           1,024
            ReLU-303           [-1, 512, 16, 8]               0
          Conv2d-304           [-1, 512, 16, 8]       2,359,296
     BatchNorm2d-305           [-1, 512, 16, 8]           1,024
            ReLU-306           [-1, 512, 16, 8]               0
          Conv2d-307          [-1, 1024, 16, 8]         524,288
     BatchNorm2d-308          [-1, 1024, 16, 8]           2,048
            ReLU-309          [-1, 1024, 16, 8]               0
      Bottleneck-310          [-1, 1024, 16, 8]               0
          Conv2d-311          [-1, 1024, 16, 8]       1,048,576
     BatchNorm2d-312          [-1, 1024, 16, 8]           2,048
            ReLU-313          [-1, 1024, 16, 8]               0
          Conv2d-314          [-1, 1024, 16, 8]       9,437,184
     BatchNorm2d-315          [-1, 1024, 16, 8]           2,048
            ReLU-316          [-1, 1024, 16, 8]               0
          Conv2d-317          [-1, 2048, 16, 8]       2,097,152
     BatchNorm2d-318          [-1, 2048, 16, 8]           4,096
          Conv2d-319          [-1, 2048, 16, 8]       2,097,152
     BatchNorm2d-320          [-1, 2048, 16, 8]           4,096
            ReLU-321          [-1, 2048, 16, 8]               0
      Bottleneck-322          [-1, 2048, 16, 8]               0
          Conv2d-323          [-1, 1024, 16, 8]       2,097,152
     BatchNorm2d-324          [-1, 1024, 16, 8]           2,048
            ReLU-325          [-1, 1024, 16, 8]               0
          Conv2d-326          [-1, 1024, 16, 8]       9,437,184
     BatchNorm2d-327          [-1, 1024, 16, 8]           2,048
            ReLU-328          [-1, 1024, 16, 8]               0
          Conv2d-329          [-1, 2048, 16, 8]       2,097,152
     BatchNorm2d-330          [-1, 2048, 16, 8]           4,096
            ReLU-331          [-1, 2048, 16, 8]               0
      Bottleneck-332          [-1, 2048, 16, 8]               0
          Conv2d-333          [-1, 1024, 16, 8]       2,097,152
     BatchNorm2d-334          [-1, 1024, 16, 8]           2,048
            ReLU-335          [-1, 1024, 16, 8]               0
          Conv2d-336          [-1, 1024, 16, 8]       9,437,184
     BatchNorm2d-337          [-1, 1024, 16, 8]           2,048
            ReLU-338          [-1, 1024, 16, 8]               0
          Conv2d-339          [-1, 2048, 16, 8]       2,097,152
     BatchNorm2d-340          [-1, 2048, 16, 8]           4,096
            ReLU-341          [-1, 2048, 16, 8]               0
      Bottleneck-342          [-1, 2048, 16, 8]               0
================================================================
Total params: 124,837,696
Trainable params: 124,837,696
Non-trainable params: 0
----------------------------------------------------------------
Input size (MB): 0.38
Forward/backward pass size (MB): 387.50
Params size (MB): 476.22
Estimated Total Size (MB): 864.09
----------------------------------------------------------------
**********************************************************************
…
  File "/Users/arron/Projects/PycharmProjects/reid-baseline/test/model_test.py", line 22, in test_backbone
    base = model_map[model_name](last_stride=1, pretrained=False, se=se, ibn_a=ibn_a, ibn_b=ibn_b)
KeyError: 'resnet18_se'
**********************************************************************
**********************************************************************
resnet18_se
…
      Bottleneck-547          [-1, 2048, 16, 8]               0
================================================================
Total params: 129,586,496
Trainable params: 129,586,496
Non-trainable params: 0
----------------------------------------------------------------
Input size (MB): 0.38
Forward/backward pass size (MB): 457.28
Params size (MB): 494.33
Estimated Total Size (MB): 951.98
----------------------------------------------------------------
**********************************************************************
**********************************************************************
wide_resnet101_2_ibn_a
----------------------------------------------------------------
        Layer (type)               Output Shape         Param #
================================================================
            Conv2d-1          [-1, 64, 128, 64]           9,408
       BatchNorm2d-2          [-1, 64, 128, 64]             128
              ReLU-3          [-1, 64, 128, 64]               0
         MaxPool2d-4           [-1, 64, 64, 32]               0
            Conv2d-5          [-1, 128, 64, 32]           8,192
    InstanceNorm2d-6           [-1, 64, 64, 32]             128
       BatchNorm2d-7           [-1, 64, 64, 32]             128
               IBN-8          [-1, 128, 64, 32]               0
              ReLU-9          [-1, 128, 64, 32]               0
           Conv2d-10          [-1, 128, 64, 32]         147,456
      BatchNorm2d-11          [-1, 128, 64, 32]             256
             ReLU-12          [-1, 128, 64, 32]               0
           Conv2d-13          [-1, 256, 64, 32]          32,768
      BatchNorm2d-14          [-1, 256, 64, 32]             512
           Conv2d-15          [-1, 256, 64, 32]          16,384
      BatchNorm2d-16          [-1, 256, 64, 32]             512
             ReLU-17          [-1, 256, 64, 32]               0
       Bottleneck-18          [-1, 256, 64, 32]               0
           Conv2d-19          [-1, 128, 64, 32]          32,768
   InstanceNorm2d-20           [-1, 64, 64, 32]             128
      BatchNorm2d-21           [-1, 64, 64, 32]             128
              IBN-22          [-1, 128, 64, 32]               0
             ReLU-23          [-1, 128, 64, 32]               0
           Conv2d-24          [-1, 128, 64, 32]         147,456
      BatchNorm2d-25          [-1, 128, 64, 32]             256
             ReLU-26          [-1, 128, 64, 32]               0
           Conv2d-27          [-1, 256, 64, 32]          32,768
      BatchNorm2d-28          [-1, 256, 64, 32]             512
             ReLU-29          [-1, 256, 64, 32]               0
       Bottleneck-30          [-1, 256, 64, 32]               0
           Conv2d-31          [-1, 128, 64, 32]          32,768
   InstanceNorm2d-32           [-1, 64, 64, 32]             128
      BatchNorm2d-33           [-1, 64, 64, 32]             128
              IBN-34          [-1, 128, 64, 32]               0
             ReLU-35          [-1, 128, 64, 32]               0
           Conv2d-36          [-1, 128, 64, 32]         147,456
      BatchNorm2d-37          [-1, 128, 64, 32]             256
             ReLU-38          [-1, 128, 64, 32]               0
           Conv2d-39          [-1, 256, 64, 32]          32,768
      BatchNorm2d-40          [-1, 256, 64, 32]             512
             ReLU-41          [-1, 256, 64, 32]               0
       Bottleneck-42          [-1, 256, 64, 32]               0
           Conv2d-43          [-1, 256, 64, 32]          65,536
   InstanceNorm2d-44          [-1, 128, 64, 32]             256
      BatchNorm2d-45          [-1, 128, 64, 32]             256
              IBN-46          [-1, 256, 64, 32]               0
             ReLU-47          [-1, 256, 64, 32]               0
           Conv2d-48          [-1, 256, 32, 16]         589,824
      BatchNorm2d-49          [-1, 256, 32, 16]             512
             ReLU-50          [-1, 256, 32, 16]               0
           Conv2d-51          [-1, 512, 32, 16]         131,072
      BatchNorm2d-52          [-1, 512, 32, 16]           1,024
           Conv2d-53          [-1, 512, 32, 16]         131,072
      BatchNorm2d-54          [-1, 512, 32, 16]           1,024
             ReLU-55          [-1, 512, 32, 16]               0
       Bottleneck-56          [-1, 512, 32, 16]               0
           Conv2d-57          [-1, 256, 32, 16]         131,072
   InstanceNorm2d-58          [-1, 128, 32, 16]             256
      BatchNorm2d-59          [-1, 128, 32, 16]             256
              IBN-60          [-1, 256, 32, 16]               0
             ReLU-61          [-1, 256, 32, 16]               0
           Conv2d-62          [-1, 256, 32, 16]         589,824
      BatchNorm2d-63          [-1, 256, 32, 16]             512
             ReLU-64          [-1, 256, 32, 16]               0
           Conv2d-65          [-1, 512, 32, 16]         131,072
      BatchNorm2d-66          [-1, 512, 32, 16]           1,024
             ReLU-67          [-1, 512, 32, 16]               0
       Bottleneck-68          [-1, 512, 32, 16]               0
           Conv2d-69          [-1, 256, 32, 16]         131,072
   InstanceNorm2d-70          [-1, 128, 32, 16]             256
      BatchNorm2d-71          [-1, 128, 32, 16]             256
              IBN-72          [-1, 256, 32, 16]               0
             ReLU-73          [-1, 256, 32, 16]               0
           Conv2d-74          [-1, 256, 32, 16]         589,824
      BatchNorm2d-75          [-1, 256, 32, 16]             512
             ReLU-76          [-1, 256, 32, 16]               0
           Conv2d-77          [-1, 512, 32, 16]         131,072
      BatchNorm2d-78          [-1, 512, 32, 16]           1,024
             ReLU-79          [-1, 512, 32, 16]               0
       Bottleneck-80          [-1, 512, 32, 16]               0
           Conv2d-81          [-1, 256, 32, 16]         131,072
   InstanceNorm2d-82          [-1, 128, 32, 16]             256
      BatchNorm2d-83          [-1, 128, 32, 16]             256
              IBN-84          [-1, 256, 32, 16]               0
             ReLU-85          [-1, 256, 32, 16]               0
           Conv2d-86          [-1, 256, 32, 16]         589,824
      BatchNorm2d-87          [-1, 256, 32, 16]             512
             ReLU-88          [-1, 256, 32, 16]               0
           Conv2d-89          [-1, 512, 32, 16]         131,072
      BatchNorm2d-90          [-1, 512, 32, 16]           1,024
             ReLU-91          [-1, 512, 32, 16]               0
       Bottleneck-92          [-1, 512, 32, 16]               0
           Conv2d-93          [-1, 512, 32, 16]         262,144
   InstanceNorm2d-94          [-1, 256, 32, 16]             512
      BatchNorm2d-95          [-1, 256, 32, 16]             512
              IBN-96          [-1, 512, 32, 16]               0
             ReLU-97          [-1, 512, 32, 16]               0
           Conv2d-98           [-1, 512, 16, 8]       2,359,296
      BatchNorm2d-99           [-1, 512, 16, 8]           1,024
            ReLU-100           [-1, 512, 16, 8]               0
          Conv2d-101          [-1, 1024, 16, 8]         524,288
     BatchNorm2d-102          [-1, 1024, 16, 8]           2,048
          Conv2d-103          [-1, 1024, 16, 8]         524,288
     BatchNorm2d-104          [-1, 1024, 16, 8]           2,048
            ReLU-105          [-1, 1024, 16, 8]               0
      Bottleneck-106          [-1, 1024, 16, 8]               0
          Conv2d-107           [-1, 512, 16, 8]         524,288
  InstanceNorm2d-108           [-1, 256, 16, 8]             512
     BatchNorm2d-109           [-1, 256, 16, 8]             512
             IBN-110           [-1, 512, 16, 8]               0
            ReLU-111           [-1, 512, 16, 8]               0
          Conv2d-112           [-1, 512, 16, 8]       2,359,296
     BatchNorm2d-113           [-1, 512, 16, 8]           1,024
            ReLU-114           [-1, 512, 16, 8]               0
          Conv2d-115          [-1, 1024, 16, 8]         524,288
     BatchNorm2d-116          [-1, 1024, 16, 8]           2,048
            ReLU-117          [-1, 1024, 16, 8]               0
      Bottleneck-118          [-1, 1024, 16, 8]               0
          Conv2d-119           [-1, 512, 16, 8]         524,288
  InstanceNorm2d-120           [-1, 256, 16, 8]             512
     BatchNorm2d-121           [-1, 256, 16, 8]             512
             IBN-122           [-1, 512, 16, 8]               0
            ReLU-123           [-1, 512, 16, 8]               0
          Conv2d-124           [-1, 512, 16, 8]       2,359,296
     BatchNorm2d-125           [-1, 512, 16, 8]           1,024
            ReLU-126           [-1, 512, 16, 8]               0
          Conv2d-127          [-1, 1024, 16, 8]         524,288
     BatchNorm2d-128          [-1, 1024, 16, 8]           2,048
            ReLU-129          [-1, 1024, 16, 8]               0
      Bottleneck-130          [-1, 1024, 16, 8]               0
          Conv2d-131           [-1, 512, 16, 8]         524,288
  InstanceNorm2d-132           [-1, 256, 16, 8]             512
     BatchNorm2d-133           [-1, 256, 16, 8]             512
             IBN-134           [-1, 512, 16, 8]               0
            ReLU-135           [-1, 512, 16, 8]               0
          Conv2d-136           [-1, 512, 16, 8]       2,359,296
     BatchNorm2d-137           [-1, 512, 16, 8]           1,024
            ReLU-138           [-1, 512, 16, 8]               0
          Conv2d-139          [-1, 1024, 16, 8]         524,288
     BatchNorm2d-140          [-1, 1024, 16, 8]           2,048
            ReLU-141          [-1, 1024, 16, 8]               0
      Bottleneck-142          [-1, 1024, 16, 8]               0
          Conv2d-143           [-1, 512, 16, 8]         524,288
  InstanceNorm2d-144           [-1, 256, 16, 8]             512
     BatchNorm2d-145           [-1, 256, 16, 8]             512
             IBN-146           [-1, 512, 16, 8]               0
            ReLU-147           [-1, 512, 16, 8]               0
          Conv2d-148           [-1, 512, 16, 8]       2,359,296
     BatchNorm2d-149           [-1, 512, 16, 8]           1,024
            ReLU-150           [-1, 512, 16, 8]               0
          Conv2d-151          [-1, 1024, 16, 8]         524,288
     BatchNorm2d-152          [-1, 1024, 16, 8]           2,048
            ReLU-153          [-1, 1024, 16, 8]               0
      Bottleneck-154          [-1, 1024, 16, 8]               0
          Conv2d-155           [-1, 512, 16, 8]         524,288
  InstanceNorm2d-156           [-1, 256, 16, 8]             512
     BatchNorm2d-157           [-1, 256, 16, 8]             512
             IBN-158           [-1, 512, 16, 8]               0
            ReLU-159           [-1, 512, 16, 8]               0
          Conv2d-160           [-1, 512, 16, 8]       2,359,296
     BatchNorm2d-161           [-1, 512, 16, 8]           1,024
            ReLU-162           [-1, 512, 16, 8]               0
          Conv2d-163          [-1, 1024, 16, 8]         524,288
     BatchNorm2d-164          [-1, 1024, 16, 8]           2,048
            ReLU-165          [-1, 1024, 16, 8]               0
      Bottleneck-166          [-1, 1024, 16, 8]               0
          Conv2d-167           [-1, 512, 16, 8]         524,288
  InstanceNorm2d-168           [-1, 256, 16, 8]             512
     BatchNorm2d-169           [-1, 256, 16, 8]             512
             IBN-170           [-1, 512, 16, 8]               0
            ReLU-171           [-1, 512, 16, 8]               0
          Conv2d-172           [-1, 512, 16, 8]       2,359,296
     BatchNorm2d-173           [-1, 512, 16, 8]           1,024
            ReLU-174           [-1, 512, 16, 8]               0
          Conv2d-175          [-1, 1024, 16, 8]         524,288
     BatchNorm2d-176          [-1, 1024, 16, 8]           2,048
            ReLU-177          [-1, 1024, 16, 8]               0
      Bottleneck-178          [-1, 1024, 16, 8]               0
          Conv2d-179           [-1, 512, 16, 8]         524,288
  InstanceNorm2d-180           [-1, 256, 16, 8]             512
     BatchNorm2d-181           [-1, 256, 16, 8]             512
             IBN-182           [-1, 512, 16, 8]               0
            ReLU-183           [-1, 512, 16, 8]               0
          Conv2d-184           [-1, 512, 16, 8]       2,359,296
     BatchNorm2d-185           [-1, 512, 16, 8]           1,024
            ReLU-186           [-1, 512, 16, 8]               0
          Conv2d-187          [-1, 1024, 16, 8]         524,288
     BatchNorm2d-188          [-1, 1024, 16, 8]           2,048
            ReLU-189          [-1, 1024, 16, 8]               0
      Bottleneck-190          [-1, 1024, 16, 8]               0
          Conv2d-191           [-1, 512, 16, 8]         524,288
  InstanceNorm2d-192           [-1, 256, 16, 8]             512
     BatchNorm2d-193           [-1, 256, 16, 8]             512
             IBN-194           [-1, 512, 16, 8]               0
            ReLU-195           [-1, 512, 16, 8]               0
          Conv2d-196           [-1, 512, 16, 8]       2,359,296
     BatchNorm2d-197           [-1, 512, 16, 8]           1,024
            ReLU-198           [-1, 512, 16, 8]               0
          Conv2d-199          [-1, 1024, 16, 8]         524,288
     BatchNorm2d-200          [-1, 1024, 16, 8]           2,048
            ReLU-201          [-1, 1024, 16, 8]               0
      Bottleneck-202          [-1, 1024, 16, 8]               0
          Conv2d-203           [-1, 512, 16, 8]         524,288
  InstanceNorm2d-204           [-1, 256, 16, 8]             512
     BatchNorm2d-205           [-1, 256, 16, 8]             512
             IBN-206           [-1, 512, 16, 8]               0
            ReLU-207           [-1, 512, 16, 8]               0
          Conv2d-208           [-1, 512, 16, 8]       2,359,296
     BatchNorm2d-209           [-1, 512, 16, 8]           1,024
            ReLU-210           [-1, 512, 16, 8]               0
          Conv2d-211          [-1, 1024, 16, 8]         524,288
     BatchNorm2d-212          [-1, 1024, 16, 8]           2,048
            ReLU-213          [-1, 1024, 16, 8]               0
      Bottleneck-214          [-1, 1024, 16, 8]               0
          Conv2d-215           [-1, 512, 16, 8]         524,288
  InstanceNorm2d-216           [-1, 256, 16, 8]             512
     BatchNorm2d-217           [-1, 256, 16, 8]             512
             IBN-218           [-1, 512, 16, 8]               0
            ReLU-219           [-1, 512, 16, 8]               0
          Conv2d-220           [-1, 512, 16, 8]       2,359,296
     BatchNorm2d-221           [-1, 512, 16, 8]           1,024
            ReLU-222           [-1, 512, 16, 8]               0
          Conv2d-223          [-1, 1024, 16, 8]         524,288
     BatchNorm2d-224          [-1, 1024, 16, 8]           2,048
            ReLU-225          [-1, 1024, 16, 8]               0
      Bottleneck-226          [-1, 1024, 16, 8]               0
          Conv2d-227           [-1, 512, 16, 8]         524,288
  InstanceNorm2d-228           [-1, 256, 16, 8]             512
     BatchNorm2d-229           [-1, 256, 16, 8]             512
             IBN-230           [-1, 512, 16, 8]               0
            ReLU-231           [-1, 512, 16, 8]               0
          Conv2d-232           [-1, 512, 16, 8]       2,359,296
     BatchNorm2d-233           [-1, 512, 16, 8]           1,024
            ReLU-234           [-1, 512, 16, 8]               0
          Conv2d-235          [-1, 1024, 16, 8]         524,288
     BatchNorm2d-236          [-1, 1024, 16, 8]           2,048
            ReLU-237          [-1, 1024, 16, 8]               0
      Bottleneck-238          [-1, 1024, 16, 8]               0
          Conv2d-239           [-1, 512, 16, 8]         524,288
  InstanceNorm2d-240           [-1, 256, 16, 8]             512
     BatchNorm2d-241           [-1, 256, 16, 8]             512
             IBN-242           [-1, 512, 16, 8]               0
            ReLU-243           [-1, 512, 16, 8]               0
          Conv2d-244           [-1, 512, 16, 8]       2,359,296
     BatchNorm2d-245           [-1, 512, 16, 8]           1,024
            ReLU-246           [-1, 512, 16, 8]               0
          Conv2d-247          [-1, 1024, 16, 8]         524,288
     BatchNorm2d-248          [-1, 1024, 16, 8]           2,048
            ReLU-249          [-1, 1024, 16, 8]               0
      Bottleneck-250          [-1, 1024, 16, 8]               0
          Conv2d-251           [-1, 512, 16, 8]         524,288
  InstanceNorm2d-252           [-1, 256, 16, 8]             512
     BatchNorm2d-253           [-1, 256, 16, 8]             512
             IBN-254           [-1, 512, 16, 8]               0
            ReLU-255           [-1, 512, 16, 8]               0
          Conv2d-256           [-1, 512, 16, 8]       2,359,296
     BatchNorm2d-257           [-1, 512, 16, 8]           1,024
            ReLU-258           [-1, 512, 16, 8]               0
          Conv2d-259          [-1, 1024, 16, 8]         524,288
     BatchNorm2d-260          [-1, 1024, 16, 8]           2,048
            ReLU-261          [-1, 1024, 16, 8]               0
      Bottleneck-262          [-1, 1024, 16, 8]               0
          Conv2d-263           [-1, 512, 16, 8]         524,288
  InstanceNorm2d-264           [-1, 256, 16, 8]             512
     BatchNorm2d-265           [-1, 256, 16, 8]             512
             IBN-266           [-1, 512, 16, 8]               0
            ReLU-267           [-1, 512, 16, 8]               0
          Conv2d-268           [-1, 512, 16, 8]       2,359,296
     BatchNorm2d-269           [-1, 512, 16, 8]           1,024
            ReLU-270           [-1, 512, 16, 8]               0
          Conv2d-271          [-1, 1024, 16, 8]         524,288
     BatchNorm2d-272          [-1, 1024, 16, 8]           2,048
            ReLU-273          [-1, 1024, 16, 8]               0
      Bottleneck-274          [-1, 1024, 16, 8]               0
          Conv2d-275           [-1, 512, 16, 8]         524,288
  InstanceNorm2d-276           [-1, 256, 16, 8]             512
     BatchNorm2d-277           [-1, 256, 16, 8]             512
             IBN-278           [-1, 512, 16, 8]               0
            ReLU-279           [-1, 512, 16, 8]               0
          Conv2d-280           [-1, 512, 16, 8]       2,359,296
     BatchNorm2d-281           [-1, 512, 16, 8]           1,024
            ReLU-282           [-1, 512, 16, 8]               0
          Conv2d-283          [-1, 1024, 16, 8]         524,288
     BatchNorm2d-284          [-1, 1024, 16, 8]           2,048
            ReLU-285          [-1, 1024, 16, 8]               0
      Bottleneck-286          [-1, 1024, 16, 8]               0
          Conv2d-287           [-1, 512, 16, 8]         524,288
  InstanceNorm2d-288           [-1, 256, 16, 8]             512
     BatchNorm2d-289           [-1, 256, 16, 8]             512
             IBN-290           [-1, 512, 16, 8]               0
            ReLU-291           [-1, 512, 16, 8]               0
          Conv2d-292           [-1, 512, 16, 8]       2,359,296
     BatchNorm2d-293           [-1, 512, 16, 8]           1,024
            ReLU-294           [-1, 512, 16, 8]               0
          Conv2d-295          [-1, 1024, 16, 8]         524,288
     BatchNorm2d-296          [-1, 1024, 16, 8]           2,048
            ReLU-297          [-1, 1024, 16, 8]               0
      Bottleneck-298          [-1, 1024, 16, 8]               0
          Conv2d-299           [-1, 512, 16, 8]         524,288
  InstanceNorm2d-300           [-1, 256, 16, 8]             512
     BatchNorm2d-301           [-1, 256, 16, 8]             512
             IBN-302           [-1, 512, 16, 8]               0
            ReLU-303           [-1, 512, 16, 8]               0
          Conv2d-304           [-1, 512, 16, 8]       2,359,296
     BatchNorm2d-305           [-1, 512, 16, 8]           1,024
            ReLU-306           [-1, 512, 16, 8]               0
          Conv2d-307          [-1, 1024, 16, 8]         524,288
     BatchNorm2d-308          [-1, 1024, 16, 8]           2,048
            ReLU-309          [-1, 1024, 16, 8]               0
      Bottleneck-310          [-1, 1024, 16, 8]               0
          Conv2d-311           [-1, 512, 16, 8]         524,288
  InstanceNorm2d-312           [-1, 256, 16, 8]             512
     BatchNorm2d-313           [-1, 256, 16, 8]             512
             IBN-314           [-1, 512, 16, 8]               0
            ReLU-315           [-1, 512, 16, 8]               0
          Conv2d-316           [-1, 512, 16, 8]       2,359,296
     BatchNorm2d-317           [-1, 512, 16, 8]           1,024
            ReLU-318           [-1, 512, 16, 8]               0
          Conv2d-319          [-1, 1024, 16, 8]         524,288
     BatchNorm2d-320          [-1, 1024, 16, 8]           2,048
            ReLU-321          [-1, 1024, 16, 8]               0
      Bottleneck-322          [-1, 1024, 16, 8]               0
          Conv2d-323           [-1, 512, 16, 8]         524,288
  InstanceNorm2d-324           [-1, 256, 16, 8]             512
     BatchNorm2d-325           [-1, 256, 16, 8]             512
             IBN-326           [-1, 512, 16, 8]               0
            ReLU-327           [-1, 512, 16, 8]               0
          Conv2d-328           [-1, 512, 16, 8]       2,359,296
     BatchNorm2d-329           [-1, 512, 16, 8]           1,024
            ReLU-330           [-1, 512, 16, 8]               0
          Conv2d-331          [-1, 1024, 16, 8]         524,288
     BatchNorm2d-332          [-1, 1024, 16, 8]           2,048
            ReLU-333          [-1, 1024, 16, 8]               0
      Bottleneck-334          [-1, 1024, 16, 8]               0
          Conv2d-335           [-1, 512, 16, 8]         524,288
  InstanceNorm2d-336           [-1, 256, 16, 8]             512
     BatchNorm2d-337           [-1, 256, 16, 8]             512
             IBN-338           [-1, 512, 16, 8]               0
            ReLU-339           [-1, 512, 16, 8]               0
          Conv2d-340           [-1, 512, 16, 8]       2,359,296
     BatchNorm2d-341           [-1, 512, 16, 8]           1,024
            ReLU-342           [-1, 512, 16, 8]               0
          Conv2d-343          [-1, 1024, 16, 8]         524,288
     BatchNorm2d-344          [-1, 1024, 16, 8]           2,048
            ReLU-345          [-1, 1024, 16, 8]               0
      Bottleneck-346          [-1, 1024, 16, 8]               0
          Conv2d-347           [-1, 512, 16, 8]         524,288
  InstanceNorm2d-348           [-1, 256, 16, 8]             512
     BatchNorm2d-349           [-1, 256, 16, 8]             512
             IBN-350           [-1, 512, 16, 8]               0
            ReLU-351           [-1, 512, 16, 8]               0
          Conv2d-352           [-1, 512, 16, 8]       2,359,296
     BatchNorm2d-353           [-1, 512, 16, 8]           1,024
            ReLU-354           [-1, 512, 16, 8]               0
          Conv2d-355          [-1, 1024, 16, 8]         524,288
     BatchNorm2d-356          [-1, 1024, 16, 8]           2,048
            ReLU-357          [-1, 1024, 16, 8]               0
      Bottleneck-358          [-1, 1024, 16, 8]               0
          Conv2d-359           [-1, 512, 16, 8]         524,288
  InstanceNorm2d-360           [-1, 256, 16, 8]             512
     BatchNorm2d-361           [-1, 256, 16, 8]             512
             IBN-362           [-1, 512, 16, 8]               0
            ReLU-363           [-1, 512, 16, 8]               0
          Conv2d-364           [-1, 512, 16, 8]       2,359,296
     BatchNorm2d-365           [-1, 512, 16, 8]           1,024
            ReLU-366           [-1, 512, 16, 8]               0
          Conv2d-367          [-1, 1024, 16, 8]         524,288
     BatchNorm2d-368          [-1, 1024, 16, 8]           2,048
            ReLU-369          [-1, 1024, 16, 8]               0
      Bottleneck-370          [-1, 1024, 16, 8]               0
          Conv2d-371          [-1, 1024, 16, 8]       1,048,576
     BatchNorm2d-372          [-1, 1024, 16, 8]           2,048
            ReLU-373          [-1, 1024, 16, 8]               0
          Conv2d-374          [-1, 1024, 16, 8]       9,437,184
     BatchNorm2d-375          [-1, 1024, 16, 8]           2,048
            ReLU-376          [-1, 1024, 16, 8]               0
          Conv2d-377          [-1, 2048, 16, 8]       2,097,152
     BatchNorm2d-378          [-1, 2048, 16, 8]           4,096
          Conv2d-379          [-1, 2048, 16, 8]       2,097,152
     BatchNorm2d-380          [-1, 2048, 16, 8]           4,096
            ReLU-381          [-1, 2048, 16, 8]               0
      Bottleneck-382          [-1, 2048, 16, 8]               0
          Conv2d-383          [-1, 1024, 16, 8]       2,097,152
     BatchNorm2d-384          [-1, 1024, 16, 8]           2,048
            ReLU-385          [-1, 1024, 16, 8]               0
          Conv2d-386          [-1, 1024, 16, 8]       9,437,184
     BatchNorm2d-387          [-1, 1024, 16, 8]           2,048
            ReLU-388          [-1, 1024, 16, 8]               0
          Conv2d-389          [-1, 2048, 16, 8]       2,097,152
     BatchNorm2d-390          [-1, 2048, 16, 8]           4,096
            ReLU-391          [-1, 2048, 16, 8]               0
      Bottleneck-392          [-1, 2048, 16, 8]               0
          Conv2d-393          [-1, 1024, 16, 8]       2,097,152
     BatchNorm2d-394          [-1, 1024, 16, 8]           2,048
            ReLU-395          [-1, 1024, 16, 8]               0
          Conv2d-396          [-1, 1024, 16, 8]       9,437,184
     BatchNorm2d-397          [-1, 1024, 16, 8]           2,048
            ReLU-398          [-1, 1024, 16, 8]               0
          Conv2d-399          [-1, 2048, 16, 8]       2,097,152
     BatchNorm2d-400          [-1, 2048, 16, 8]           4,096
            ReLU-401          [-1, 2048, 16, 8]               0
      Bottleneck-402          [-1, 2048, 16, 8]               0
================================================================
Total params: 124,837,696
Trainable params: 124,837,696
Non-trainable params: 0
----------------------------------------------------------------
Input size (MB): 0.38
Forward/backward pass size (MB): 413.50
Params size (MB): 476.22
Estimated Total Size (MB): 890.09
----------------------------------------------------------------
**********************************************************************
**********************************************************************
wide_resnet101_2_ibn_b
----------------------------------------------------------------
        Layer (type)               Output Shape         Param #
================================================================
            Conv2d-1          [-1, 64, 128, 64]           9,408
    InstanceNorm2d-2          [-1, 64, 128, 64]             128
              ReLU-3          [-1, 64, 128, 64]               0
         MaxPool2d-4           [-1, 64, 64, 32]               0
            Conv2d-5          [-1, 128, 64, 32]           8,192
       BatchNorm2d-6          [-1, 128, 64, 32]             256
              ReLU-7          [-1, 128, 64, 32]               0
            Conv2d-8          [-1, 128, 64, 32]         147,456
       BatchNorm2d-9          [-1, 128, 64, 32]             256
             ReLU-10          [-1, 128, 64, 32]               0
           Conv2d-11          [-1, 256, 64, 32]          32,768
      BatchNorm2d-12          [-1, 256, 64, 32]             512
           Conv2d-13          [-1, 256, 64, 32]          16,384
      BatchNorm2d-14          [-1, 256, 64, 32]             512
   InstanceNorm2d-15          [-1, 256, 64, 32]             512
             ReLU-16          [-1, 256, 64, 32]               0
       Bottleneck-17          [-1, 256, 64, 32]               0
           Conv2d-18          [-1, 128, 64, 32]          32,768
      BatchNorm2d-19          [-1, 128, 64, 32]             256
             ReLU-20          [-1, 128, 64, 32]               0
           Conv2d-21          [-1, 128, 64, 32]         147,456
      BatchNorm2d-22          [-1, 128, 64, 32]             256
             ReLU-23          [-1, 128, 64, 32]               0
           Conv2d-24          [-1, 256, 64, 32]          32,768
      BatchNorm2d-25          [-1, 256, 64, 32]             512
   InstanceNorm2d-26          [-1, 256, 64, 32]             512
             ReLU-27          [-1, 256, 64, 32]               0
       Bottleneck-28          [-1, 256, 64, 32]               0
           Conv2d-29          [-1, 128, 64, 32]          32,768
      BatchNorm2d-30          [-1, 128, 64, 32]             256
             ReLU-31          [-1, 128, 64, 32]               0
           Conv2d-32          [-1, 128, 64, 32]         147,456
      BatchNorm2d-33          [-1, 128, 64, 32]             256
             ReLU-34          [-1, 128, 64, 32]               0
           Conv2d-35          [-1, 256, 64, 32]          32,768
      BatchNorm2d-36          [-1, 256, 64, 32]             512
   InstanceNorm2d-37          [-1, 256, 64, 32]             512
             ReLU-38          [-1, 256, 64, 32]               0
       Bottleneck-39          [-1, 256, 64, 32]               0
           Conv2d-40          [-1, 256, 64, 32]          65,536
      BatchNorm2d-41          [-1, 256, 64, 32]             512
             ReLU-42          [-1, 256, 64, 32]               0
           Conv2d-43          [-1, 256, 32, 16]         589,824
      BatchNorm2d-44          [-1, 256, 32, 16]             512
             ReLU-45          [-1, 256, 32, 16]               0
           Conv2d-46          [-1, 512, 32, 16]         131,072
      BatchNorm2d-47          [-1, 512, 32, 16]           1,024
           Conv2d-48          [-1, 512, 32, 16]         131,072
      BatchNorm2d-49          [-1, 512, 32, 16]           1,024
   InstanceNorm2d-50          [-1, 512, 32, 16]           1,024
             ReLU-51          [-1, 512, 32, 16]               0
       Bottleneck-52          [-1, 512, 32, 16]               0
           Conv2d-53          [-1, 256, 32, 16]         131,072
      BatchNorm2d-54          [-1, 256, 32, 16]             512
             ReLU-55          [-1, 256, 32, 16]               0
           Conv2d-56          [-1, 256, 32, 16]         589,824
      BatchNorm2d-57          [-1, 256, 32, 16]             512
             ReLU-58          [-1, 256, 32, 16]               0
           Conv2d-59          [-1, 512, 32, 16]         131,072
      BatchNorm2d-60          [-1, 512, 32, 16]           1,024
   InstanceNorm2d-61          [-1, 512, 32, 16]           1,024
             ReLU-62          [-1, 512, 32, 16]               0
       Bottleneck-63          [-1, 512, 32, 16]               0
           Conv2d-64          [-1, 256, 32, 16]         131,072
      BatchNorm2d-65          [-1, 256, 32, 16]             512
             ReLU-66          [-1, 256, 32, 16]               0
           Conv2d-67          [-1, 256, 32, 16]         589,824
      BatchNorm2d-68          [-1, 256, 32, 16]             512
             ReLU-69          [-1, 256, 32, 16]               0
           Conv2d-70          [-1, 512, 32, 16]         131,072
      BatchNorm2d-71          [-1, 512, 32, 16]           1,024
   InstanceNorm2d-72          [-1, 512, 32, 16]           1,024
             ReLU-73          [-1, 512, 32, 16]               0
       Bottleneck-74          [-1, 512, 32, 16]               0
           Conv2d-75          [-1, 256, 32, 16]         131,072
      BatchNorm2d-76          [-1, 256, 32, 16]             512
             ReLU-77          [-1, 256, 32, 16]               0
           Conv2d-78          [-1, 256, 32, 16]         589,824
      BatchNorm2d-79          [-1, 256, 32, 16]             512
             ReLU-80          [-1, 256, 32, 16]               0
           Conv2d-81          [-1, 512, 32, 16]         131,072
      BatchNorm2d-82          [-1, 512, 32, 16]           1,024
   InstanceNorm2d-83          [-1, 512, 32, 16]           1,024
             ReLU-84          [-1, 512, 32, 16]               0
       Bottleneck-85          [-1, 512, 32, 16]               0
           Conv2d-86          [-1, 512, 32, 16]         262,144
      BatchNorm2d-87          [-1, 512, 32, 16]           1,024
             ReLU-88          [-1, 512, 32, 16]               0
           Conv2d-89           [-1, 512, 16, 8]       2,359,296
      BatchNorm2d-90           [-1, 512, 16, 8]           1,024
             ReLU-91           [-1, 512, 16, 8]               0
           Conv2d-92          [-1, 1024, 16, 8]         524,288
      BatchNorm2d-93          [-1, 1024, 16, 8]           2,048
           Conv2d-94          [-1, 1024, 16, 8]         524,288
      BatchNorm2d-95          [-1, 1024, 16, 8]           2,048
             ReLU-96          [-1, 1024, 16, 8]               0
       Bottleneck-97          [-1, 1024, 16, 8]               0
           Conv2d-98           [-1, 512, 16, 8]         524,288
      BatchNorm2d-99           [-1, 512, 16, 8]           1,024
            ReLU-100           [-1, 512, 16, 8]               0
          Conv2d-101           [-1, 512, 16, 8]       2,359,296
     BatchNorm2d-102           [-1, 512, 16, 8]           1,024
            ReLU-103           [-1, 512, 16, 8]               0
          Conv2d-104          [-1, 1024, 16, 8]         524,288
     BatchNorm2d-105          [-1, 1024, 16, 8]           2,048
            ReLU-106          [-1, 1024, 16, 8]               0
      Bottleneck-107          [-1, 1024, 16, 8]               0
          Conv2d-108           [-1, 512, 16, 8]         524,288
     BatchNorm2d-109           [-1, 512, 16, 8]           1,024
            ReLU-110           [-1, 512, 16, 8]               0
          Conv2d-111           [-1, 512, 16, 8]       2,359,296
     BatchNorm2d-112           [-1, 512, 16, 8]           1,024
            ReLU-113           [-1, 512, 16, 8]               0
          Conv2d-114          [-1, 1024, 16, 8]         524,288
     BatchNorm2d-115          [-1, 1024, 16, 8]           2,048
            ReLU-116          [-1, 1024, 16, 8]               0
      Bottleneck-117          [-1, 1024, 16, 8]               0
          Conv2d-118           [-1, 512, 16, 8]         524,288
     BatchNorm2d-119           [-1, 512, 16, 8]           1,024
            ReLU-120           [-1, 512, 16, 8]               0
          Conv2d-121           [-1, 512, 16, 8]       2,359,296
     BatchNorm2d-122           [-1, 512, 16, 8]           1,024
            ReLU-123           [-1, 512, 16, 8]               0
          Conv2d-124          [-1, 1024, 16, 8]         524,288
     BatchNorm2d-125          [-1, 1024, 16, 8]           2,048
            ReLU-126          [-1, 1024, 16, 8]               0
      Bottleneck-127          [-1, 1024, 16, 8]               0
          Conv2d-128           [-1, 512, 16, 8]         524,288
     BatchNorm2d-129           [-1, 512, 16, 8]           1,024
            ReLU-130           [-1, 512, 16, 8]               0
          Conv2d-131           [-1, 512, 16, 8]       2,359,296
     BatchNorm2d-132           [-1, 512, 16, 8]           1,024
            ReLU-133           [-1, 512, 16, 8]               0
          Conv2d-134          [-1, 1024, 16, 8]         524,288
     BatchNorm2d-135          [-1, 1024, 16, 8]           2,048
            ReLU-136          [-1, 1024, 16, 8]               0
      Bottleneck-137          [-1, 1024, 16, 8]               0
          Conv2d-138           [-1, 512, 16, 8]         524,288
     BatchNorm2d-139           [-1, 512, 16, 8]           1,024
            ReLU-140           [-1, 512, 16, 8]               0
          Conv2d-141           [-1, 512, 16, 8]       2,359,296
     BatchNorm2d-142           [-1, 512, 16, 8]           1,024
            ReLU-143           [-1, 512, 16, 8]               0
          Conv2d-144          [-1, 1024, 16, 8]         524,288
     BatchNorm2d-145          [-1, 1024, 16, 8]           2,048
            ReLU-146          [-1, 1024, 16, 8]               0
      Bottleneck-147          [-1, 1024, 16, 8]               0
          Conv2d-148           [-1, 512, 16, 8]         524,288
     BatchNorm2d-149           [-1, 512, 16, 8]           1,024
            ReLU-150           [-1, 512, 16, 8]               0
          Conv2d-151           [-1, 512, 16, 8]       2,359,296
     BatchNorm2d-152           [-1, 512, 16, 8]           1,024
            ReLU-153           [-1, 512, 16, 8]               0
          Conv2d-154          [-1, 1024, 16, 8]         524,288
     BatchNorm2d-155          [-1, 1024, 16, 8]           2,048
            ReLU-156          [-1, 1024, 16, 8]               0
      Bottleneck-157          [-1, 1024, 16, 8]               0
          Conv2d-158           [-1, 512, 16, 8]         524,288
     BatchNorm2d-159           [-1, 512, 16, 8]           1,024
            ReLU-160           [-1, 512, 16, 8]               0
          Conv2d-161           [-1, 512, 16, 8]       2,359,296
     BatchNorm2d-162           [-1, 512, 16, 8]           1,024
            ReLU-163           [-1, 512, 16, 8]               0
          Conv2d-164          [-1, 1024, 16, 8]         524,288
     BatchNorm2d-165          [-1, 1024, 16, 8]           2,048
            ReLU-166          [-1, 1024, 16, 8]               0
      Bottleneck-167          [-1, 1024, 16, 8]               0
          Conv2d-168           [-1, 512, 16, 8]         524,288
     BatchNorm2d-169           [-1, 512, 16, 8]           1,024
            ReLU-170           [-1, 512, 16, 8]               0
          Conv2d-171           [-1, 512, 16, 8]       2,359,296
     BatchNorm2d-172           [-1, 512, 16, 8]           1,024
            ReLU-173           [-1, 512, 16, 8]               0
          Conv2d-174          [-1, 1024, 16, 8]         524,288
     BatchNorm2d-175          [-1, 1024, 16, 8]           2,048
            ReLU-176          [-1, 1024, 16, 8]               0
      Bottleneck-177          [-1, 1024, 16, 8]               0
          Conv2d-178           [-1, 512, 16, 8]         524,288
     BatchNorm2d-179           [-1, 512, 16, 8]           1,024
            ReLU-180           [-1, 512, 16, 8]               0
          Conv2d-181           [-1, 512, 16, 8]       2,359,296
     BatchNorm2d-182           [-1, 512, 16, 8]           1,024
            ReLU-183           [-1, 512, 16, 8]               0
          Conv2d-184          [-1, 1024, 16, 8]         524,288
     BatchNorm2d-185          [-1, 1024, 16, 8]           2,048
            ReLU-186          [-1, 1024, 16, 8]               0
      Bottleneck-187          [-1, 1024, 16, 8]               0
          Conv2d-188           [-1, 512, 16, 8]         524,288
     BatchNorm2d-189           [-1, 512, 16, 8]           1,024
            ReLU-190           [-1, 512, 16, 8]               0
          Conv2d-191           [-1, 512, 16, 8]       2,359,296
     BatchNorm2d-192           [-1, 512, 16, 8]           1,024
            ReLU-193           [-1, 512, 16, 8]               0
          Conv2d-194          [-1, 1024, 16, 8]         524,288
     BatchNorm2d-195          [-1, 1024, 16, 8]           2,048
            ReLU-196          [-1, 1024, 16, 8]               0
      Bottleneck-197          [-1, 1024, 16, 8]               0
          Conv2d-198           [-1, 512, 16, 8]         524,288
     BatchNorm2d-199           [-1, 512, 16, 8]           1,024
            ReLU-200           [-1, 512, 16, 8]               0
          Conv2d-201           [-1, 512, 16, 8]       2,359,296
     BatchNorm2d-202           [-1, 512, 16, 8]           1,024
            ReLU-203           [-1, 512, 16, 8]               0
          Conv2d-204          [-1, 1024, 16, 8]         524,288
     BatchNorm2d-205          [-1, 1024, 16, 8]           2,048
            ReLU-206          [-1, 1024, 16, 8]               0
      Bottleneck-207          [-1, 1024, 16, 8]               0
          Conv2d-208           [-1, 512, 16, 8]         524,288
     BatchNorm2d-209           [-1, 512, 16, 8]           1,024
            ReLU-210           [-1, 512, 16, 8]               0
          Conv2d-211           [-1, 512, 16, 8]       2,359,296
     BatchNorm2d-212           [-1, 512, 16, 8]           1,024
            ReLU-213           [-1, 512, 16, 8]               0
          Conv2d-214          [-1, 1024, 16, 8]         524,288
     BatchNorm2d-215          [-1, 1024, 16, 8]           2,048
            ReLU-216          [-1, 1024, 16, 8]               0
      Bottleneck-217          [-1, 1024, 16, 8]               0
          Conv2d-218           [-1, 512, 16, 8]         524,288
     BatchNorm2d-219           [-1, 512, 16, 8]           1,024
            ReLU-220           [-1, 512, 16, 8]               0
          Conv2d-221           [-1, 512, 16, 8]       2,359,296
     BatchNorm2d-222           [-1, 512, 16, 8]           1,024
            ReLU-223           [-1, 512, 16, 8]               0
          Conv2d-224          [-1, 1024, 16, 8]         524,288
     BatchNorm2d-225          [-1, 1024, 16, 8]           2,048
            ReLU-226          [-1, 1024, 16, 8]               0
      Bottleneck-227          [-1, 1024, 16, 8]               0
          Conv2d-228           [-1, 512, 16, 8]         524,288
     BatchNorm2d-229           [-1, 512, 16, 8]           1,024
            ReLU-230           [-1, 512, 16, 8]               0
          Conv2d-231           [-1, 512, 16, 8]       2,359,296
     BatchNorm2d-232           [-1, 512, 16, 8]           1,024
            ReLU-233           [-1, 512, 16, 8]               0
          Conv2d-234          [-1, 1024, 16, 8]         524,288
     BatchNorm2d-235          [-1, 1024, 16, 8]           2,048
            ReLU-236          [-1, 1024, 16, 8]               0
      Bottleneck-237          [-1, 1024, 16, 8]               0
          Conv2d-238           [-1, 512, 16, 8]         524,288
     BatchNorm2d-239           [-1, 512, 16, 8]           1,024
            ReLU-240           [-1, 512, 16, 8]               0
          Conv2d-241           [-1, 512, 16, 8]       2,359,296
     BatchNorm2d-242           [-1, 512, 16, 8]           1,024
            ReLU-243           [-1, 512, 16, 8]               0
          Conv2d-244          [-1, 1024, 16, 8]         524,288
     BatchNorm2d-245          [-1, 1024, 16, 8]           2,048
            ReLU-246          [-1, 1024, 16, 8]               0
      Bottleneck-247          [-1, 1024, 16, 8]               0
          Conv2d-248           [-1, 512, 16, 8]         524,288
     BatchNorm2d-249           [-1, 512, 16, 8]           1,024
            ReLU-250           [-1, 512, 16, 8]               0
          Conv2d-251           [-1, 512, 16, 8]       2,359,296
     BatchNorm2d-252           [-1, 512, 16, 8]           1,024
            ReLU-253           [-1, 512, 16, 8]               0
          Conv2d-254          [-1, 1024, 16, 8]         524,288
     BatchNorm2d-255          [-1, 1024, 16, 8]           2,048
            ReLU-256          [-1, 1024, 16, 8]               0
      Bottleneck-257          [-1, 1024, 16, 8]               0
          Conv2d-258           [-1, 512, 16, 8]         524,288
     BatchNorm2d-259           [-1, 512, 16, 8]           1,024
            ReLU-260           [-1, 512, 16, 8]               0
          Conv2d-261           [-1, 512, 16, 8]       2,359,296
     BatchNorm2d-262           [-1, 512, 16, 8]           1,024
            ReLU-263           [-1, 512, 16, 8]               0
          Conv2d-264          [-1, 1024, 16, 8]         524,288
     BatchNorm2d-265          [-1, 1024, 16, 8]           2,048
            ReLU-266          [-1, 1024, 16, 8]               0
      Bottleneck-267          [-1, 1024, 16, 8]               0
          Conv2d-268           [-1, 512, 16, 8]         524,288
     BatchNorm2d-269           [-1, 512, 16, 8]           1,024
            ReLU-270           [-1, 512, 16, 8]               0
          Conv2d-271           [-1, 512, 16, 8]       2,359,296
     BatchNorm2d-272           [-1, 512, 16, 8]           1,024
            ReLU-273           [-1, 512, 16, 8]               0
          Conv2d-274          [-1, 1024, 16, 8]         524,288
     BatchNorm2d-275          [-1, 1024, 16, 8]           2,048
            ReLU-276          [-1, 1024, 16, 8]               0
      Bottleneck-277          [-1, 1024, 16, 8]               0
          Conv2d-278           [-1, 512, 16, 8]         524,288
     BatchNorm2d-279           [-1, 512, 16, 8]           1,024
            ReLU-280           [-1, 512, 16, 8]               0
          Conv2d-281           [-1, 512, 16, 8]       2,359,296
     BatchNorm2d-282           [-1, 512, 16, 8]           1,024
            ReLU-283           [-1, 512, 16, 8]               0
          Conv2d-284          [-1, 1024, 16, 8]         524,288
     BatchNorm2d-285          [-1, 1024, 16, 8]           2,048
            ReLU-286          [-1, 1024, 16, 8]               0
      Bottleneck-287          [-1, 1024, 16, 8]               0
          Conv2d-288           [-1, 512, 16, 8]         524,288
     BatchNorm2d-289           [-1, 512, 16, 8]           1,024
            ReLU-290           [-1, 512, 16, 8]               0
          Conv2d-291           [-1, 512, 16, 8]       2,359,296
     BatchNorm2d-292           [-1, 512, 16, 8]           1,024
            ReLU-293           [-1, 512, 16, 8]               0
          Conv2d-294          [-1, 1024, 16, 8]         524,288
     BatchNorm2d-295          [-1, 1024, 16, 8]           2,048
            ReLU-296          [-1, 1024, 16, 8]               0
      Bottleneck-297          [-1, 1024, 16, 8]               0
          Conv2d-298           [-1, 512, 16, 8]         524,288
     BatchNorm2d-299           [-1, 512, 16, 8]           1,024
            ReLU-300           [-1, 512, 16, 8]               0
          Conv2d-301           [-1, 512, 16, 8]       2,359,296
     BatchNorm2d-302           [-1, 512, 16, 8]           1,024
            ReLU-303           [-1, 512, 16, 8]               0
          Conv2d-304          [-1, 1024, 16, 8]         524,288
     BatchNorm2d-305          [-1, 1024, 16, 8]           2,048
            ReLU-306          [-1, 1024, 16, 8]               0
      Bottleneck-307          [-1, 1024, 16, 8]               0
          Conv2d-308           [-1, 512, 16, 8]         524,288
     BatchNorm2d-309           [-1, 512, 16, 8]           1,024
            ReLU-310           [-1, 512, 16, 8]               0
          Conv2d-311           [-1, 512, 16, 8]       2,359,296
     BatchNorm2d-312           [-1, 512, 16, 8]           1,024
            ReLU-313           [-1, 512, 16, 8]               0
          Conv2d-314          [-1, 1024, 16, 8]         524,288
     BatchNorm2d-315          [-1, 1024, 16, 8]           2,048
            ReLU-316          [-1, 1024, 16, 8]               0
      Bottleneck-317          [-1, 1024, 16, 8]               0
          Conv2d-318          [-1, 1024, 16, 8]       1,048,576
     BatchNorm2d-319          [-1, 1024, 16, 8]           2,048
            ReLU-320          [-1, 1024, 16, 8]               0
          Conv2d-321          [-1, 1024, 16, 8]       9,437,184
     BatchNorm2d-322          [-1, 1024, 16, 8]           2,048
            ReLU-323          [-1, 1024, 16, 8]               0
          Conv2d-324          [-1, 2048, 16, 8]       2,097,152
     BatchNorm2d-325          [-1, 2048, 16, 8]           4,096
          Conv2d-326          [-1, 2048, 16, 8]       2,097,152
     BatchNorm2d-327          [-1, 2048, 16, 8]           4,096
            ReLU-328          [-1, 2048, 16, 8]               0
      Bottleneck-329          [-1, 2048, 16, 8]               0
          Conv2d-330          [-1, 1024, 16, 8]       2,097,152
     BatchNorm2d-331          [-1, 1024, 16, 8]           2,048
            ReLU-332          [-1, 1024, 16, 8]               0
          Conv2d-333          [-1, 1024, 16, 8]       9,437,184
     BatchNorm2d-334          [-1, 1024, 16, 8]           2,048
            ReLU-335          [-1, 1024, 16, 8]               0
          Conv2d-336          [-1, 2048, 16, 8]       2,097,152
     BatchNorm2d-337          [-1, 2048, 16, 8]           4,096
            ReLU-338          [-1, 2048, 16, 8]               0
      Bottleneck-339          [-1, 2048, 16, 8]               0
          Conv2d-340          [-1, 1024, 16, 8]       2,097,152
     BatchNorm2d-341          [-1, 1024, 16, 8]           2,048
            ReLU-342          [-1, 1024, 16, 8]               0
          Conv2d-343          [-1, 1024, 16, 8]       9,437,184
     BatchNorm2d-344          [-1, 1024, 16, 8]           2,048
            ReLU-345          [-1, 1024, 16, 8]               0
          Conv2d-346          [-1, 2048, 16, 8]       2,097,152
     BatchNorm2d-347          [-1, 2048, 16, 8]           4,096
            ReLU-348          [-1, 2048, 16, 8]               0
      Bottleneck-349          [-1, 2048, 16, 8]               0
================================================================
Total params: 124,843,328
Trainable params: 124,843,328
Non-trainable params: 0
----------------------------------------------------------------
Input size (MB): 0.38
Forward/backward pass size (MB): 407.50
Params size (MB): 476.24
Estimated Total Size (MB): 884.11
----------------------------------------------------------------
